elina_poly/opt_pk_lait.pt (torch_old, 341158 bytes, 14 tensors)

action_net.0.weight f4 [128, 128]
0	0x3d1fae21	0.03898442
1	0x3a4a8971	0.0007726169
2	0xbcba526f	-0.022744386
3	0x3d101bc2	0.035182722
4	0xbda87f37	-0.08227389
5	0x3bf48cfb	0.0074630952
6	0xbcd1b33c	-0.02559816
7	0x3d2d708a	0.042343654
8	0x3bf39ea5	0.0074346834
9	0xbc949d06	-0.01814128
10	0x3c9d4d56	0.019201916
11	0xbb9eafb2	-0.004842722
12	0x3ce4cd4a	0.02792992
13	0xbc302012	-0.010749834
14	0xbc24a4f0	-0.01004909
15	0xbc04de61	-0.00810966
16	0xbc11e513	-0.008904713
17	0xbbfe5cf0	-0.007762544
18	0x3d72f1e1	0.059312705
19	0x3c150270	0.009094819
20	0xbc005a1d	-0.007833985
21	0xbd82b3ee	-0.06381975
22	0xbc97ef91	-0.018546851
23	0x3a00f7db	0.0004919746
24	0xbce90fe2	-0.028449956
25	0xbc274e57	-0.010211549
26	0x3d38e257	0.04513773
27	0x3d41aabd	0.04728197
28	0xbdc7f263	-0.097630285
29	0x3c0d0c41	0.008608879
30	0x3c843d91	0.016142638
31	0x3c2507e4	0.010072682
32	0x3d6f9dca	0.05850009
33	0xbdb4c111	-0.08825887
34	0xbdb39175	-0.08767978
35	0x37f60a44	2.9330266e-05
36	0x3d94da09	0.072681494
37	0xbca11eca	-0.019668002
38	0x3d03622d	0.03207605
39	0xbd112fd4	-0.035446003
40	0x3da0314f	0.07821905
41	0xbd2846d8	-0.041083187
42	0x3d826c3a	0.06368299
43	0xb9bd22e2	-0.0003607488
44	0x394b5762	0.00019392141
45	0x3d1cb44b	0.03825788
46	0xbd57e66b	-0.052709978
47	0x3c8b9433	0.01703844
48	0xbcbe87b0	-0.02325806
49	0xbc875617	-0.016520543
50	0xbd95f10c	-0.07321367
51	0xbd2b3a8a	-0.041803874
52	0x3d2d4532	0.042302318
53	0xbc90b5cd	-0.017664814
54	0x3da77cd0	0.08178103
55	0x3ac7a923	0.0015232902
56	0xbc53ee59	-0.0129352445
57	0xbd4e521f	-0.050371286
58	0x3d334350	0.043765366
59	0x3b174968	0.0023084525
60	0xbd825474	-0.063637644
61	0x3d446c7c	0.04795502
62	0x3d4f6760	0.050635695
63	0x3d8b8aac	0.06813559
64	0xbd35f0f8	-0.04441926
65	0xbcb409a1	-0.021977248
66	0xb7142c8f	-8.831862e-06
67	0x3c27530b	0.01021267
68	0xbc3c63ef	-0.011498435
69	0xbd8c4ac0	-0.06850195
70	0x3d2a4d47	0.041577604
71	0xbcbda0dd	-0.023147995
72	0x3d168648	0.036749154
73	0xb88ed216	-6.810219e-05
74	0xbb29bd14	-0.0025900053
75	0x3c90ed2c	0.017691217
76	0x3d005f0e	0.03134065
77	0x3d153073	0.036423158
78	0xbdb2387b	-0.08702179
79	0x3b874230	0.004127763
80	0xbcad1e6b	-0.021132668
81	0xbd92897b	-0.071551286
82	0x39e451f7	0.00043548617
83	0xbcab91bb	-0.020943513
84	0x3d436fb7	0.04771396
85	0xbd61bb25	-0.055110116
86	0xbca32ea3	-0.019919699
87	0x3bddd30a	0.0067695426
88	0xbc9e0844	-0.01929105
89	0x3d2dc165	0.042420764
90	0x3cac6473	0.021043992
91	0xbd94ff6a	-0.07275279
92	0x3c2ee87e	0.010675548
93	0x3cb404c8	0.021974936
94	0xbd875d31	-0.06609572
95	0xbd3de1cc	-0.046357915
96	0x3ce3e507	0.02781917
97	0x3ca14eea	0.01969095
98	0xbd360e7a	-0.0444474
99	0xbd0a9c5a	-0.033840515
100	0x3da24f2d	0.07925258
101	0xbc97f916	-0.01855139
102	0x3d3242c0	0.04352069
103	0x3d031dc2	0.0320108
104	0xbd799a33	-0.06093807
105	0xbdae56d1	-0.08512653
106	0x3da47e3c	0.0803189
107	0x3b432a7f	0.0029779968
108	0x3d6525ba	0.055944182
109	0x3c09374f	0.008375003
110	0x3cccc59a	0.024996568
111	0x3d80ea18	0.0629465
112	0xba6b0917	-0.0008965893
113	0xbd84e093	-0.06488147
114	0x3a825040	0.0009942129
115	0x3d81049c	0.06299707
116	0x3d7ad12c	0.061234638
117	0x3d44cd65	0.048047442
118	0xbd948510	-0.07251942
119	0xbd85eaef	-0.06538951
120	0xbb03056e	-0.001999225
121	0x3b39d685	0.0028356623
122	0x3da68eb6	0.08132689
123	0xbd6886c4	-0.056769148
124	0x3d3dc7e7	0.04633322
125	0xbd6c1c0e	-0.057643943
126	0xbdb353c8	-0.087562144
127	0xbcd4c5b5	-0.02597318
128	0x3d4f9882	0.050682552
129	0x3d9956e5	0.07487277
130	0xbd6faad7	-0.058512535
131	0x3c878247	0.016541613
132	0x3d9e6633	0.07734337
133	0x3d5d68c1	0.05405498
134	0x3d52e9f9	0.051492665
135	0x3d7049bd	0.058664072
136	0x3d5bc1bc	0.053651556
137	0x3ca487d4	0.0200843
138	0xbd80368a	-0.062604025
139	0xbd9dbc24	-0.077019006
140	0xbd2cfe19	-0.042234514
141	0xbb6a8aa9	-0.0035788214
142	0xbd71aa21	-0.05900014
143	0x3cf7c1d1	0.030243786
144	0x37e756b2	2.7577717e-05
145	0xbccba518	-0.024858996
146	0x3c186148	0.009300537
147	0x3cd7fd02	0.02636576
148	0x3d193caf	0.037411388
149	0x3d5e41bd	0.05426191
150	0xba474648	-0.000760172
151	0x3b25b307	0.002528371
152	0xbcbe2050	-0.023208767
153	0xba0cf97d	-0.0005377753
154	0xbdbb594a	-0.0914789
155	0xbd6b3126	-0.05741992
156	0xbd6fb834	-0.05852528
157	0xbbad6c73	-0.005292469
158	0x3d754a95	0.05988558
159	0xbbff44f1	-0.007790201
160	0xbd8ac0fb	-0.06775089
161	0x3d041c57	0.03225359
162	0x3ceefc62	0.02917308
163	0x36853529	3.9698975e-06
164	0xbd46592a	-0.048424877
165	0x3c85cf18	0.016334102
166	0xbcfc0ce2	-0.030767862
167	0xbcb44459	-0.022005247
168	0xbd8eccc7	-0.06972652
169	0xbd1fe500	-0.03903675
170	0xbcb689a4	-0.022282429
171	0x3d2528a1	0.04032195
172	0x00000038	7.8e-44
173	0x3c94b8ba	0.01815449
174	0x3daeeecb	0.0854164
175	0x3da641ba	0.08118005
176	0x3d74b2b2	0.05974073
177	0x39ba5870	0.00035542576
178	0xbd7fc7d5	-0.062446434
179	0x3d8de720	0.06928849
180	0xbcac9534	-0.02106724
181	0xbc155c5e	-0.00911626
182	0xbd9fef79	-0.07809348
183	0xbc294a89	-0.010332712
184	0xbd07aae6	-0.033121966
185	0x3d88987c	0.06669709
186	0xbda20037	-0.07910197
187	0xbdaca5e7	-0.08430081
188	0xbb28837d	-0.0025713139
189	0xbd58ca2f	-0.052927192
190	0x3d09907d	0.03358506
191	0xbc9d98ea	-0.019237954
192	0xbd2c135d	-0.042010654
193	0x3ae3a103	0.0017366711
194	0x3a6046ff	0.0008555501
195	0xbd837dcd	-0.06420479
196	0x3bf1db90	0.00738091
197	0x3d5efa8d	0.054438163
198	0x3dac87bf	0.08424329
199	0xbd773bf8	-0.060359925
200	0x3c997798	0.018733785
201	0xbd8cd383	-0.0687628
202	0x3d460170	0.048341215
203	0xbd020746	-0.031745218
204	0x3d6bc3b0	0.05755967
205	0x3b28dc92	0.0025766236
206	0xbc27a0ae	-0.01023118
207	0x3afb64c2	0.0019179808
208	0x3af7c5ad	0.0018903516
209	0x3d1c1d76	0.038114034
210	0x3c6a919a	0.014316941
211	0x3ce59f84	0.028030165
212	0xbd9e02e4	-0.07715395
213	0x3d8030db	0.062593184
214	0x3c78785e	0.0151654165
215	0x3c0d2b0b	0.008616219
216	0x3d80b5b5	0.06284658
217	0xbd8868ee	-0.06660639
218	0xbd2ecf17	-0.042677965
219	0x3d990502	0.07471658
220	0xbd8ffc01	-0.07030488
221	0x3da9a852	0.08284058
222	0xbd93f7f8	-0.07225031
223	0xbd8254c4	-0.06363824
224	0x3d26a54a	0.040684976
225	0xbd85d3e0	-0.065345526
226	0xbcc6d8b2	-0.02427325
227	0x3d7d8977	0.061898675
228	0x3d90d4fe	0.07071875
229	0x3ce8b365	0.028405854
230	0xbcc0ebd7	-0.023549957
231	0xbd92792f	-0.0715202
232	0x3daec6fc	0.08534047
233	0xbcc1bec3	-0.023650533
234	0xbd1772ea	-0.036974825
235	0x3c9b34d0	0.018946081
236	0xbd83d469	-0.064369984
237	0x3d1e6b79	0.038676713
238	0x3d5c8542	0.053838022
239	0xbd8a3d57	-0.06749981
240	0xbd854dda	-0.0650899
241	0xbc30bb68	-0.010786869
242	0x3d0c2b2d	0.034220863
243	0xbbe31d6c	-0.0069309976
244	0xbd35ded0	-0.044401944
245	0xba9cb358	-0.0011955304
246	0xbdb0c83c	-0.08631942
247	0xbd764550	-0.060124695
248	0x3c3b00a7	0.01141373
249	0x3d19b309	0.037524257
250	0x3d9a18e8	0.07524282
251	0xbcf66492	-0.030077253
252	0x3bd2dbf3	0.0064349114
253	0x3d14c462	0.036320098
254	0x3c038e0a	0.00802947
255	0xbd3a55a5	-0.045491833

action_net.0.bias f4 [128]
0	0x3a107afa	0.0005511489
1	0x399b0a20	0.00029571448
2	0x00000005	7e-45
3	0xb944b901	-0.00018760936
4	0xb9f9aed0	-0.00047623226
5	0xbaaca2cd	-0.0013171077
6	0xb99f5bfa	-0.0003039537
7	0x38e36f77	0.000108449654
8	0xba923b7c	-0.0011156644
9	0x376d34bd	1.413858e-05
10	0x387081f9	5.7341505e-05
11	0xb8188459	-3.6362882e-05
12	0x3a3f7fce	0.0007305116
13	0x3a704124	0.000916498
14	0xb99f541e	-0.00030389515
15	0xba115567	-0.0005544037
16	0x3a774f49	0.00094341167
17	0xb98001d9	-0.0002441544
18	0xb6e621c0	-6.858463e-06
19	0x00000030	6.7e-44
20	0xba4ac7ca	-0.00077354594
21	0x3b6c9a02	0.0036102538
22	0xb9115110	-0.00013858476
23	0xba60b0f1	-0.0008571288
24	0x3b40cf5d	0.0029420473
25	0xb5da8e7a	-1.6283732e-06
26	0x3af37417	0.0018574026
27	0x3aba2741	0.0014202372
28	0x3937f7a4	0.00017544493
29	0xb609c411	-2.0528717e-06
30	0xb9f84739	-0.0004735531
31	0xb9ac56a5	-0.00032870952
32	0x397f84a9	0.00024368115
33	0xb93fbb93	-0.00018285056
34	0xbafbd449	-0.0019213046
35	0x3b0b769a	0.002128041
36	0x3b43f373	0.0029899746
37	0x3b9d1468	0.0047936924
38	0xbab1a242	-0.0013552385
39	0x38cb99cd	9.708442e-05
40	0x38e3ae7c	0.00010856704
41	0x3ab4319a	0.0013747693
42	0xba20031d	-0.00061039795
43	0xb98f608f	-0.00027347027
44	0xba6c4f11	-0.00090144674
45	0x3b2ad4fb	0.0026066888
46	0x3acaf403	0.0015484098
47	0x3a1a0933	0.00058760046
48	0xb8b95a98	-8.838362e-05
49	0xba341ed4	-0.0006871049
50	0x3afdcedc	0.0019364017
51	0xbad0c8b0	-0.001592895
52	0x3bb35d03	0.0054737343
53	0x39b2f8e2	0.00034136238
54	0x3a8f44fd	0.0010930594
55	0x3b4dffaf	0.0031432917
56	0x3b027c4e	0.0019910517
57	0x3a6c2be8	0.0009009228
58	0x39e9d892	0.0004460258
59	0x39cace17	0.0003868199
60	0x3a11612a	0.00055457896
61	0x3a40a400	0.00073486567
62	0xb8027e8e	-3.111228e-05
63	0x3ac5131d	0.0015035603
64	0x39b61d2f	0.0003473549
65	0x38fb9151	0.0001199568
66	0x38b01578	8.396333e-05
67	0x39598212	0.00020743188
68	0x3971bc29	0.00023053646
69	0x3b4ce106	0.0031262054
70	0x3a1ba9a3	0.00059380586
71	0xba871147	-0.0010304832
72	0xba0c5cb1	-0.0005354388
73	0x0000000e	2e-44
74	0x3a1f04e5	0.0006066098
75	0xb9b7ef84	-0.00035082933
76	0xb9f666b8	-0.00046997308
77	0xbb06de9f	-0.002057947
78	0x3abd8a46	0.0014460764
79	0x3a1bf3c8	0.0005949107
80	0x00000032	7e-44
81	0xb8d503aa	-0.00010157314
82	0x3b07c81e	0.0020718644
83	0xbab2a8de	-0.0013630649
84	0x38c3018f	9.298615e-05
85	0x38ab86f6	8.179054e-05
86	0x39133c5d	0.000140415
87	0x3a6322e1	0.000866456
88	0x3ae60e8a	0.001755194
89	0x39da5192	0.00041640975
90	0x3963acf3	0.00021712836
91	0x3a30c84a	0.00067437126
92	0xb87eb898	-6.0730235e-05
93	0xba343e80	-0.00068757683
94	0xb8133389	-3.5095527e-05
95	0x39de86b2	0.00042443495
96	0xbb2120a6	-0.002458611
97	0x3a701db7	0.00091597013
98	0x3adc505c	0.0016808617
99	0xb8aee1a7	-8.3389976e-05
100	0xbaec91c6	-0.0018048815
101	0xba470090	-0.00075913314
102	0xb8d0080b	-9.919711e-05
103	0x3ab562a3	0.00138386
104	0x3a3301c4	0.0006828571
105	0x38cfe536	9.913223e-05
106	0xb63d44ad	-2.820317e-06
107	0x3a45002b	0.00075149786
108	0xba4eb460	-0.00078851543
109	0x3acedca1	0.0015782305
110	0xb9e3a987	-0.00043423122
111	0x3aef2675	0.0018245714
112	0x3a923893	0.0011155776
113	0x37a28bb7	1.9376965e-05
114	0x3a76e7e9	0.00094187126
115	0x3715894f	8.913062e-06
116	0x3afa3cba	0.0019091584
117	0xb9a595dc	-0.00031582906
118	0x3b6e7952	0.003638823
119	0xbaeac4d3	-0.0017911441
120	0xb8d91692	-0.000103515704
121	0xbaabae3b	-0.0013098189
122	0x3af00414	0.0018311762
123	0xb9d91ed4	-0.00041412434
124	0x3a970f43	0.0011524934
125	0xb9963cd7	-0.0002865556
126	0xb9cbb23e	-0.00038851978
127	0xa97d1b58	-5.6201002e-14

action_net.2.weight f4 [128, 128]
0	0x3c330c70	0.010928258
1	0x3dae9493	0.08524432
2	0xbbaff8e2	-0.0053702453
3	0x3cfce86e	0.03087255
4	0xbce4da50	-0.02793613
5	0xbd592a1c	-0.053018674
6	0xbcbb7289	-0.022881763
7	0x3d88380a	0.066513136
8	0xbca728b1	-0.020405145
9	0xbb02fabb	-0.0019985873
10	0x3d4fee1a	0.05076418
11	0x3b5b46e8	0.0033459011
12	0x3d2c6eab	0.04209773
13	0x3c47f528	0.012204446
14	0x3d35d6c4	0.04439427
15	0x3d660d0d	0.05616479
16	0x3d22a81b	0.0397111
17	0xbaa3a833	-0.001248604
18	0x3cf3eb0f	0.02977517
19	0x3b199a16	0.002343779
20	0xbc64a186	-0.013954526
21	0x3c71096f	0.014711722
22	0xbd987276	-0.07443707
23	0xbc8cde60	-0.01719588
24	0x3db6a28c	0.08917722
25	0xbcff07e3	-0.03113169
26	0xbcf62642	-0.03004754
27	0xbc84ecb0	-0.016226143
28	0xbce941dd	-0.028473789
29	0xbba526a4	-0.0050400067
30	0xbdaa5164	-0.08316305
31	0xbcfa39df	-0.030545173
32	0x3cec09bf	0.028813241
33	0xbd4ce2d8	-0.050021023
34	0x3d2249ea	0.03962127
35	0x3da9ea19	0.08296604
36	0x3b1b9172	0.0023737815
37	0x3d38d78f	0.045127448
38	0xbb9dc26b	-0.004814436
39	0xb9d50dea	-0.00040636893
40	0x3d6fe6a5	0.05856957
41	0x3cebf329	0.028802471
42	0xbd933d0c	-0.07189378
43	0x3d8ec497	0.0697109
44	0x3d1050cc	0.035233304
45	0x3d8c6d6e	0.068568096
46	0xbd03a25a	-0.032137252
47	0xbd74b887	-0.05974629
48	0x3d3ee9be	0.046609633
49	0x3db15ed1	0.08660663
50	0x3d0e00fd	0.03466891
51	0xbd989fd4	-0.0745236
52	0x3db0079f	0.085952036
53	0xbbfdb942	-0.0077430317
54	0x3c831cc6	0.016004931
55	0x3c62e9a1	0.013849647
56	0x3ca79f89	0.020461814
57	0x3d03e69d	0.03220235
58	0x3c38c487	0.0112773245
59	0x3c60108e	0.013675822
60	0x3c16314d	0.009167028
61	0xbd0018f2	-0.03127379
62	0xbd8843d2	-0.06653561
63	0x3d78181c	0.060569867
64	0x3b900747	0.004395399
65	0xbd768c3e	-0.06019234
66	0xbbc863e7	-0.006115425
67	0x3d0db2cb	0.03459434
68	0x3d56e84e	0.052467637
69	0x3d905927	0.070482545
70	0x3d5476b0	0.051871
71	0x3d36a03d	0.04458641
72	0x3ce7f86a	0.028316695
73	0x3ad0d0c1	0.0015931354
74	0x3d57e369	0.05270711
75	0xbc8ba1cc	-0.017044924
76	0xbd05ef40	-0.03269887
77	0xbd12d625	-0.035848755
78	0x3b8fdf27	0.0043906155
79	0xbd42e806	-0.047584556
80	0xbd5e9e3b	-0.05435012
81	0x3db74c81	0.08950139
82	0x3cd93ec1	0.026519181
83	0x3d89ce36	0.06728785
84	0xbba4c420	-0.0050282627
85	0xbc29fd1e	-0.010375289
86	0x3c8adee9	0.016951995
87	0x3da1ea90	0.07906067
88	0x3d6a0923	0.05713762
89	0xbcf4a25b	-0.029862573
90	0xbce49a01	-0.027905466
91	0xbcbc5584	-0.022989996
92	0x3d646781	0.05576277
93	0x3d0824a2	0.03323806
94	0x3c531d4f	0.012885406
95	0x3cbdcedd	0.02316993
96	0xbdc85dde	-0.09783529
97	0xbd6e692d	-0.058205772
98	0xbce37f22	-0.027770583
99	0xbdaf6910	-0.08564961
100	0xbd5a703a	-0.053329684
101	0xbd582e3c	-0.052778468
102	0x3c94a9ff	0.018147467
103	0x3c0afbb1	0.0084828595
104	0xbda6f5a5	-0.08152322
105	0xbd4a555a	-0.049397804
106	0x3cdf4dd2	0.027258787
107	0x3da149ac	0.0787538
108	0x3d75bc1c	0.05999385
109	0xbc6c456a	-0.0144208465
110	0x3dbd84f7	0.09253877
111	0xbbe6d815	-0.007044802
112	0xbd8220ec	-0.063539356
113	0xbce104b9	-0.027468072
114	0xbd21b12e	-0.039475612
115	0x3b5251bb	0.0032092172
116	0x3d85cd5d	0.065333106
117	0xbcb4b3a3	-0.022058314
118	0x3cfb3890	0.03066662
119	0x3bb70052	0.005584755
120	0x3d6b0adb	0.0573834
121	0xbb883f73	-0.0041579544
122	0x3ced8286	0.028992902
123	0xbcf192d2	-0.029488955
124	0xbd454a5d	-0.04816662
125	0xbd29cbed	-0.041454244
126	0x3d844992	0.06459345
127	0x3b00d544	0.0019658366
128	0x3d64b6c8	0.055838376
129	0xbd8f9e54	-0.070126206
130	0x8000003e	-8.7e-44
131	0x3d9d48a5	0.076798715
132	0xbd396d23	-0.045270097
133	0xbd34fd5d	-0.04418694
134	0x3ab36ae2	0.001368847
135	0x3d2ea23a	0.04263518
136	0xbd9594e2	-0.07303788
137	0x397bcfc6	0.00024014627
138	0x3d2e1079	0.04249618
139	0x3c79450b	0.015214215
140	0xbc96bdd9	-0.018401073
141	0xb89622e2	-7.159055e-05
142	0x3af2cd44	0.0018524309
143	0x3be680fb	0.0070344186
144	0xbd37adf3	-0.044843625
145	0x3d3d2aa6	0.04618325
146	0xbb45bbe0	-0.0030171797
147	0x3470a59b	2.2411989e-07
148	0x3d2cd168	0.042191893
149	0xbd258685	-0.04041149
150	0xbd7a7ca3	-0.06115402
151	0x3ba74c38	0.0051055215
152	0xbcc9885a	-0.02460115
153	0x3d8f7416	0.070045635
154	0xbc6d877d	-0.014497635
155	0x3ad2163c	0.0016028355
156	0x3ca9b3c5	0.020715604
157	0xb77003bc	-1.4305984e-05
158	0xbdad35e8	-0.084575474
159	0xbd8c37e6	-0.06846599
160	0xbd3e05c1	-0.046392206
161	0x3b0a03cf	0.00210594
162	0x3c1a5f63	0.009422156
163	0x3da25e60	0.07928157
164	0xbd953db3	-0.07287159
165	0xbc3ecf0d	-0.011646044
166	0x3b0a9172	0.002114382
167	0x3d1467cd	0.036231805
168	0xbd3d0203	-0.046144497
169	0x3d608aa0	0.054819703
170	0xbd969f6d	-0.07354627
171	0xbdb1708d	-0.086640455
172	0x3c167e33	0.009185362
173	0xbbdedb9a	-0.006801081
174	0x3b4a73f9	0.003089188
175	0x3c2337ab	0.009962003
176	0x3cda98ce	0.026684191
177	0xbdabd1cd	-0.08389626
178	0xbd9de336	-0.07709353
179	0xbd2bb815	-0.0419236
180	0x3d8a4425	0.06751279
181	0x3ce67603	0.028132444
182	0x3d9d00af	0.07666146
183	0x3be62309	0.0070232195
184	0xbdb722d3	-0.08942189
185	0x3d00cab3	0.03144331
186	0x3d5715f8	0.052511185
187	0x3b9154fe	0.0044351807
188	0xbd24e99f	-0.04026186
189	0x3984b217	0.0002530969
190	0x3d7d1692	0.061789103
191	0xbb451b7d	-0.0030076199
192	0x3da28cd6	0.079370186
193	0x3d38ebf2	0.04514689
194	0x3c124fac	0.008930128
195	0x3d9258c5	0.07145838
196	0xbda6f425	-0.081520356
197	0x3cbfbfc5	0.023406873
198	0x3b0ea9f8	0.002176879
199	0xbd28b3d4	-0.041187122
200	0x3d5adf01	0.05343533
201	0x0000002f	6.6e-44
202	0xbd398daa	-0.045301117
203	0xbd898ea1	-0.067166574
204	0x3c71c34f	0.014756038
205	0xbcaac561	-0.02084607
206	0x3d6c105a	0.05763278
207	0x3bcd8bc2	0.006272764
208	0x3c0ced5b	0.008601512
209	0xbd497e3c	-0.049192652
210	0xbcac29e8	-0.021016076
211	0x3d509f58	0.050933212
212	0x3d903b5a	0.070425704
213	0xbd21f45e	-0.039539687
214	0x39e52a10	0.00043709623
215	0x3daa0134	0.08301011
216	0x3d9d9cee	0.076959476
217	0x3d6a7905	0.05724432
218	0x3d3a2b68	0.04545155
219	0x3c6fef59	0.014644467
220	0x3bdc7033	0.0067272424
221	0x3da78dbf	0.08181333
222	0xbd95fd3e	-0.07323693
223	0x3d38a235	0.045076568
224	0x3b898147	0.0041963193
225	0xbd1833f7	-0.037158933
226	0xbd959dea	-0.0730551
227	0x390870a6	0.00013011936
228	0x3d2573b3	0.040393542
229	0x3b82eb64	0.003995346
230	0x3ce5de42	0.028060082
231	0xbc3c7193	-0.011501688
232	0x3d15b17e	0.036546223
233	0xbce7e07f	-0.02830529
234	0xbd7fa1ef	-0.06241029
235	0xbd63e296	-0.05563601
236	0x3d8ad28b	0.06778439
237	0x3b9225e7	0.0044600847
238	0xbcc04331	-0.02346954
239	0xbd7a7737	-0.06114885
240	0x3c38d510	0.011281267
241	0x3c9081ed	0.017640078
242	0x3d8225d5	0.06354872
243	0x3b11cfc1	0.0022249075
244	0xbc017075	-0.007900347
245	0x3daa5eaa	0.08318837
246	0xbd0e88ef	-0.03479856
247	0xbd53ec55	-0.051739056
248	0xbd86c5f8	-0.06580728
249	0x3d92ef97	0.071746044
250	0x3d68207b	0.0566716
251	0xbd2fe8ba	-0.042946555
252	0x3baf99ec	0.005358925
253	0xbdafe622	-0.08588816
254	0xbd392ecd	-0.04521065
255	0xaa3e5772	-1.6905729e-13

action_net.2.bias f4 [128]
0	0x3c31dd75	0.010856022
1	0xb8ef2710	-0.00011403684
2	0x3b3794ad	0.0028012202
3	0xbaa04650	-0.0012227986
4	0xb9f14c44	-0.00046023924
5	0xba758427	-0.00093657005
6	0xb9bb11f9	-0.0003568081
7	0x3b3c7dad	0.0028761432
8	0x3b81fe2a	0.0039670663
9	0x3ad56b3b	0.0016282568
10	0x3a923da4	0.0011157286
11	0x3a163909	0.0005730545
12	0x3ab02b7b	0.0013440693
13	0xbaaa3847	-0.0012986743
14	0xb9a287e1	-0.00031000286
15	0x3a9c2b57	0.0011914772
16	0xb841665a	-4.6110108e-05
17	0x3b21e5f9	0.0024703725
18	0x3abc3506	0.0014359064
19	0x3ab65943	0.00139121
20	0x0000001c	3.9e-44
21	0x39d88127	0.00041294956
22	0x3b080f46	0.0020761057
23	0x3a8dd602	0.0010821226
24	0xbaf4f428	-0.0018688487
25	0xb96c057b	-0.00022508756
26	0x3b22a2ca	0.0024816268
27	0x00000030	6.7e-44
28	0xbb1106cb	-0.0022129293
29	0x36fcb253	7.530945e-06
30	0xbb09388c	-0.0020938246
31	0x3a9f8b12	0.0012172183
32	0xba8c3698	-0.0010697423
33	0xbad3f413	-0.0016170762
34	0x3c0430bb	0.008068259
35	0x3c42750a	0.011868725
36	0xbafd859a	-0.0019342185
37	0xb99fb2de	-0.0003046011
38	0xba5a9bf8	-0.0008339281
39	0x3a9b3e6b	0.0011844164
40	0x3c20a6f1	0.009805427
41	0xb7a0adb6	-1.9154377e-05
42	0xba56be31	-0.0008191793
43	0x3b218b32	0.0024649617
44	0xb8929d26	-6.991094e-05
45	0xbad3439e	-0.0016118174
46	0x3b9cdaa9	0.0047868085
47	0xbbd20ca5	-0.0064101988
48	0xb9ff21aa	-0.00048662472
49	0xbb159a6e	-0.0022827643
50	0xba5576c0	-0.00081430003
51	0xbaad1f6c	-0.0013208217
52	0x3b68101a	0.0035409988
53	0x39f47a92	0.0004663063
54	0xbb50a706	-0.0031837835
55	0xb4ab1c6f	-3.187192e-07
56	0x3c28ef16	0.010310909
57	0xbb080a51	-0.0020758102
58	0xbace97bc	-0.0015761773
59	0xba6d15e1	-0.0009044093
60	0xbb22c0a0	-0.0024834052
61	0x3a71b472	0.0009220309
62	0x3bd0d041	0.006372482
63	0x3ad2765d	0.0016057004
64	0xb9c702ad	-0.0003795823
65	0x38ccf3e1	9.772904e-05
66	0x3744f107	1.1738629e-05
67	0xb94fdea1	-0.00019823994
68	0xbad701a4	-0.0016403687
69	0xb9debfb1	-0.0004248596
70	0x3b652c58	0.0034969058
71	0x3b83ae96	0.004018615
72	0xbc4290aa	-0.011875311
73	0xbaae6fa4	-0.0013308418
74	0x37251cbf	9.841459e-06
75	0x0000002b	6e-44
76	0x3a48bfd2	0.0007657978
77	0xb9186e8e	-0.00014537034
78	0xb8dc433f	-0.00010502943
79	0x39c5c809	0.00037723806
80	0x3adcb5c4	0.0016838838
81	0x3a65e73b	0.0008770113
82	0xba3010b0	-0.0006716354
83	0x3a6daca2	0.0009066557
84	0x37131726	8.767272e-06
85	0x3ad55bd2	0.0016277975
86	0x3a53711f	0.00080658676
87	0x8fe45585	-2.2515477e-29
88	0x3a9c53b0	0.0011926796
89	0xb9ad54c2	-0.0003306028
90	0x3b2927cd	0.0025811077
91	0xba421730	-0.0007403968
92	0x3b3d742c	0.0028908355
93	0x3af44f38	0.0018639332
94	0xbb737d0b	-0.003715339
95	0x3ab18697	0.0013544139
96	0xa5de64e7	-3.8579235e-16
97	0xbb9d2351	-0.00479547
98	0xbad28ee0	-0.0016064309
99	0x1d5ecfad	2.9488821e-21
100	0xb94b8ab0	-0.00019411254
101	0x3af3f06a	0.0018611078
102	0x3989e598	0.00026301737
103	0x3aaf3887	0.0013368287
104	0x3a401cb7	0.00073284976
105	0x3b73f3fc	0.0037224283
106	0x39a050bb	0.00030577727
107	0x00000012	2.5e-44
108	0x397484b2	0.00023319086
109	0xbabb21ad	-0.0014277004
110	0x3ab755ae	0.0013987327
111	0xbb7a9e22	-0.0038241227
112	0x3ab025af	0.0013438965
113	0x3b413ff4	0.0029487582
114	0x3b72690e	0.0036988887
115	0xb8ecb154	-0.00011286387
116	0xba73e205	-0.0009303394
117	0x3a64cf62	0.0008728412
118	0xbb4f2d08	-0.0031612534
119	0x3c28466c	0.010270696
120	0xba782bf5	-0.00094669993
121	0x3bd47dd5	0.006484727
122	0xbad8afcd	-0.0016531885
123	0xba09d758	-0.0005258224
124	0xb919c572	-0.00014664771
125	0xbb23e7c1	-0.0025009962
126	0x3ad54fab	0.0016274353
127	0xbb3a6dcc	-0.0028446792

action_net.4.weight f4 [128, 128]
0	0x3d132bdd	0.035930503
1	0x3bb94a6e	0.0056546247
2	0x3cb93aef	0.02261111
3	0xbcb25973	-0.021771168
4	0x3ca4f9da	0.02013867
5	0xbd48d302	-0.049029358
6	0x3d0daa1a	0.03458605
7	0xbd7caae0	-0.061686397
8	0x3d35cba8	0.044383675
9	0x3d4104c8	0.0471237
10	0xbb010bff	-0.0019690988
11	0xbbb3fe73	-0.005492979
12	0xbd889f4c	-0.066710085
13	0xbcf3b18e	-0.02974775
14	0xbd2d5cb9	-0.042324755
15	0xbbd69430	-0.006548427
16	0xbcf531cf	-0.029930977
17	0x3d9362cc	0.071965784
18	0xbc68cf36	-0.014209559
19	0x3bcf5473	0.006327206
20	0x00000018	3.4e-44
21	0xbc514c7c	-0.012774583
22	0xbbfb8576	-0.007675822
23	0x3cb283f6	0.02179144
24	0xbc547fde	-0.012969939
25	0x3d39a505	0.04532339
26	0xbbcaec41	-0.0061927144
27	0x36a52660	4.9218506e-06
28	0x3d9608e1	0.07325912
29	0x3d20bd75	0.03924318
30	0xbd86b39f	-0.06577229
31	0xbd2be327	-0.041964676
32	0x3cfaaa1d	0.030598694
33	0xbd2ecabc	-0.04267381
34	0x3d99a454	0.07502046
35	0x3da4654e	0.08027135
36	0xbc18b07a	-0.009319419
37	0x3d1a62e9	0.037691984
38	0xbd9be565	-0.07612113
39	0x3cf36be7	0.029714538
40	0x3d99eb2e	0.0751556
41	0xbd410253	-0.047121357
42	0x3d1d7072	0.038437314
43	0xbd453ba9	-0.0481526
44	0x3be37659	0.0069415984
45	0x3d9942b1	0.074834235
46	0xbc09b949	-0.008405992
47	0x3da4673a	0.080275014
48	0xbd9cd1a3	-0.076571725
49	0x3d7d92a9	0.061907444
50	0x3d8e2627	0.06940871
51	0x3b261847	0.002534406
52	0xbc02a7a7	-0.007974542
53	0xbc2b9e3b	-0.010474737
54	0x3d71ac53	0.05900223
55	0xbd53519c	-0.0515915
56	0x3d9f0177	0.07763951
57	0x3d07cd35	0.033154685
58	0x3cb5b679	0.022181736
59	0xbcc82091	-0.024429591
60	0xbd1db249	-0.038500104
61	0x3d3338d5	0.04375537
62	0x3d98c462	0.07459332
63	0x3b1a90bc	0.0023584804
64	0x3c91cab9	0.017796861
65	0x3d3faaaf	0.046793636
66	0x390fdc6a	0.00013719653
67	0xbdb0b673	-0.086285494
68	0x3d2e12b9	0.042498324
69	0xbd8912a1	-0.06693006
70	0xbdb6900b	-0.08914193
71	0xbcd164a6	-0.025560688
72	0xbdb3ec5b	-0.087853156
73	0xbd92cb48	-0.07167679
74	0xbdb251a4	-0.08706978
75	0x3d1f51c9	0.038896356
76	0x3d3097e9	0.043113623
77	0xbd880ec1	-0.06643439
78	0x3c3c06cd	0.011476231
79	0x3cae1128	0.021248415
80	0x3bef9910	0.0073119476
81	0xbc5d4317	-0.013504765
82	0xbd0037f7	-0.031303372
83	0xbd9c0ed7	-0.07620018
84	0x3d8fad9b	0.070155345
85	0x3cd67709	0.026179807
86	0x3da194fd	0.078897454
87	0x12a54bf4	1.0431688e-27
88	0xbb958e77	-0.0045641023
89	0xbc8398ee	-0.016064133
90	0x3c7d4981	0.015459419
91	0xbd27754f	-0.04088336
92	0xbd9d00c7	-0.07666164
93	0x3d8fdd0d	0.07024584
94	0xbcdc23e5	-0.026872585
95	0x3da73630	0.08164632
96	0x3a998d36	0.0011715058
97	0x3b63e705	0.003477515
98	0x3c85984a	0.016307969
99	0x1ec0b630	2.0404142e-20
100	0xbcb0c149	-0.02157654
101	0x3d90bfab	0.07067808
102	0xbc6c7914	-0.014433164
103	0x3d53b98e	0.05169063
104	0x3b53c57c	0.0032313755
105	0xbce647ad	-0.02811035
106	0xbd9dcb56	-0.07704799
107	0x3b2dc40a	0.0026514553
108	0x3bb69281	0.005571664
109	0x3d76b5a4	0.06023182
110	0xbd0eebd9	-0.03489289
111	0x3d7845f6	0.060613595
112	0x3daf7af7	0.085683756
113	0x3d1beb85	0.038066406
114	0x3d99d218	0.07510775
115	0xbd9d50d1	-0.0768143
116	0xbd8e7dbf	-0.06957578
117	0x3ca5a294	0.020219125
118	0xbda1f526	-0.079080865
119	0x3c96f0d4	0.018425383
120	0x3c8288b4	0.015934326
121	0x3d246adb	0.040140968
122	0xbd75f7da	-0.060050823
123	0xbc7e934c	-0.015538048
124	0x3da50381	0.08057309
125	0x3da8269a	0.08210488
126	0x3d9296cd	0.07157669
127	0x3d3b91e4	0.04579343
128	0xbd71af49	-0.059005056
129	0xbbe017c3	-0.00683877
130	0x3da777d4	0.08177152
131	0x3c6978a6	0.014249956
132	0x3da99fbb	0.08282419
133	0xbd2df74f	-0.04247218
134	0x3da07b53	0.07836022
135	0xbd2578e4	-0.040398493
136	0xbd0f8545	-0.035039205
137	0x3cd0b99b	0.025479129
138	0x3c456747	0.012048549
139	0x3d8dd1fc	0.06924817
140	0x3cf1ab3c	0.029500596
141	0xbd951c53	-0.07280793
142	0x3c382c5d	0.011241046
143	0xba4a8f6c	-0.000772706
144	0x3ca0341a	0.019556094
145	0x3d3f5397	0.046710577
146	0x3cdb3ac2	0.026761416
147	0x3cc7e073	0.024399018
148	0x394f1f36	0.00019752685
149	0xbd9e3ef8	-0.07726854
150	0x3d12685e	0.035744064
151	0x3dae0f3b	0.08498999
152	0x3d3c23f6	0.045932733
153	0xbc097bdf	-0.00839135
154	0xba1b0a47	-0.0005914312
155	0xb16b1828	-3.4210732e-09
156	0xbd054694	-0.03253801
157	0x3d91bfb0	0.071166396
158	0xbc8014e6	-0.015634965
159	0xbd00ae4c	-0.031416222
160	0xbba9598e	-0.0051681465
161	0xbda8a07c	-0.08233735
162	0x3c6ed950	0.0145781785
163	0xbd751a09	-0.059839282
164	0x3c1fa57d	0.009744045
165	0xbbe3c830	-0.0069513544
166	0xbd1457bf	-0.036216494
167	0xbc80176d	-0.01563617
168	0xbc965679	-0.01835178
169	0xbb412457	-0.0029471123
170	0x3d545c03	0.05184556
171	0x3c3dec25	0.011591946
172	0xbd4b09ef	-0.04957002
173	0x3ba334d9	0.004980665
174	0xbc48f600	-0.012265682
175	0xbd098026	-0.033569477
176	0x3c33ac07	0.0109663075
177	0xbd5cc375	-0.05389734
178	0x3c5dd9cf	0.013540699
179	0x3a730a62	0.00092712615
180	0xbd88b7b1	-0.06675661
181	0xbc4ef068	-0.0126305595
182	0x3bbcc862	0.005761192
183	0x3c0d064e	0.00860746
184	0xbd0198f0	-0.031639993
185	0x3c250f51	0.0100744525
186	0xbd299e1f	-0.04141056
187	0xbbf8df1a	-0.007594955
188	0x3a23dfe1	0.0006251317
189	0x3c0ea927	0.008707321
190	0x3d0477bc	0.03234075
191	0xbd56348d	-0.05229621
192	0x3c204bee	0.009783728
193	0x3c89d8f3	0.016827082
194	0x3b5390e6	0.003228241
195	0xbc0df7d4	-0.008665044
196	0x3daf98d8	0.085740745
197	0x3d8fb54a	0.07017
198	0xbd02b6a4	-0.03191246
199	0x3d9294a4	0.07157257
200	0xbd8692ce	-0.065709695
201	0xbdad2fbd	-0.08456371
202	0x3d7cbfe5	0.061706442
203	0x3a5bea33	0.00083890854
204	0xbc511816	-0.01276209
205	0xbd4dce2e	-0.050245456
206	0x3c98b4fd	0.01864099
207	0xbc8b3eba	-0.016997684
208	0x3c16a1be	0.009193836
209	0x3d4df2d8	0.050280422
210	0x3d8ac33a	0.06775518
211	0x3d48d54d	0.049031544
212	0xbd3f936a	-0.046771444
213	0x3cc0a003	0.0235138
214	0xba843702	-0.0010087194
215	0x13e9d1cb	5.902434e-27
216	0x3db4faad	0.08836875
217	0xbdabce92	-0.083890095
218	0xbd9d7530	-0.07688367
219	0x3d97e433	0.074165724
220	0x3d85ef63	0.065398
221	0x3d1335b7	0.0359399
222	0xbdadc189	-0.084841795
223	0x3d8898fd	0.06669805
224	0x378694a6	1.6043265e-05
225	0x3cfea9bc	0.031086795
226	0x3d1aeba9	0.0378224
227	0xb8a2bbfe	-7.759778e-05
228	0xbd17509b	-0.036942106
229	0xbdb77d92	-0.089594975
230	0xbcac0fb8	-0.021003589
231	0xbd5e053e	-0.054204218
232	0xbcf45d0f	-0.02982953
233	0x3d728c73	0.059215974
234	0xbc614a51	-0.013750629
235	0x3bac7faf	0.0052642445
236	0xbd880dfd	-0.06643293
237	0x3d36e153	0.04464848
238	0x3dc38793	0.09547343
239	0x3d215913	0.03939159
240	0xbd245bde	-0.040126674
241	0x3b30a206	0.0026952042
242	0xbcf77c1a	-0.030210543
243	0x3d628d57	0.055310573
244	0x3d9693de	0.07352422
245	0xbb808f5f	-0.003923341
246	0x3b86ec73	0.0041175424
247	0x3d978a7d	0.073994614
248	0x3d8b32b6	0.06796782
249	0xbd4b2b43	-0.049601804
250	0xbd18749b	-0.03722058
251	0xbdb14b86	-0.08656983
252	0x3a22e356	0.0006213685
253	0xbca29b61	-0.019849481
254	0x3ce230cf	0.027611164
255	0xbd30ef4b	-0.043196958

action_net.4.bias f4 [128]
0	0xba844632	-0.0010091721
1	0xbbb49a5a	-0.005511564
2	0x3b3d685f	0.0028901321
3	0x3bddebb4	0.006772483
4	0x3916c439	0.00014378213
5	0x3be78cca	0.007066344
6	0x80000055	-1.19e-43
7	0xbc497e8f	-0.01229824
8	0x39b65617	0.00034777887
9	0x3774d57e	1.4593241e-05
10	0x3c82da69	0.015973287
11	0x3a408be7	0.0007345066
12	0xbaea6847	-0.001788386
13	0x3c02be64	0.007979963
14	0x3c578416	0.01315405
15	0xbb22bef2	-0.002483305
16	0x3ba919b7	0.005160536
17	0x3bfda678	0.007740792
18	0xbb6ed203	-0.0036441095
19	0xbb826997	-0.0039798724
20	0x3b106ffa	0.00220394
21	0x3950627b	0.00019873113
22	0x3a8d3a4f	0.0010774824
23	0x3b9f1611	0.0048549254
24	0xba3a746b	-0.00071126845
25	0x805b87d3	-8.405755e-39
26	0x3a8a40f7	0.0010547925
27	0x38c9da82	9.625127e-05
28	0x3ad8e453	0.0016547538
29	0x0295ef73	2.203102e-37
30	0x3b2d081a	0.0026402534
31	0x3bebbbb0	0.007194005
32	0x16570052	1.7367663e-25
33	0x37c2a251	2.3202187e-05
34	0xba94c4d5	-0.0011350164
35	0x39bb1b2c	0.00035687664
36	0xba15949a	-0.0005706042
37	0xbb2915d7	-0.002580037
38	0x0000003a	8.1e-44
39	0x390e705b	0.00013584031
40	0x39f3504d	0.000464084
41	0xbc7c4942	-0.015398325
42	0x39914068	0.00027704542
43	0xb819de77	-3.668523e-05
44	0x37d638ba	2.5537203e-05
45	0x3be5306c	0.0069942977
46	0x3b653547	0.0034974383
47	0xb872727e	-5.7803925e-05
48	0x3aa4b591	0.0012566318
49	0x3b53177e	0.0032210047
50	0xb9350f26	-0.00017267148
51	0xb8d40ef0	-0.0001011173
52	0x3c27a589	0.010232338
53	0x3b278448	0.0025561024
54	0x00000036	7.6e-44
55	0xba0357a6	-0.0005010314
56	0x3a247676	0.00062737556
57	0x80000020	-4.5e-44
58	0x389a719c	7.3644536e-05
59	0x3b983c55	0.004645864
60	0x3c5de611	0.013543622
61	0xbc1846bd	-0.009294209
62	0x3a57f421	0.0008237977
63	0xb95a87fa	-0.00020840755
64	0x3c068a8a	0.008211741
65	0xba8eef0e	-0.0010904984
66	0x3c0987b3	0.00839417
67	0x3896e043	7.1943294e-05
68	0x06268e23	3.1325556e-35
69	0xbac09165	-0.0014691768
70	0x0e78ac6c	3.0651378e-30
71	0x3b894e33	0.0041902303
72	0xbab9bd81	-0.0014170856
73	0x39f0ede1	0.000459536
74	0xbc3917a6	-0.011297142
75	0xb6a40421	-4.8880615e-06
76	0xba8b4fe9	-0.0010628673
77	0x0000001a	3.6e-44
78	0x3b8ba20e	0.004261262
79	0xb8296c37	-4.0393523e-05
80	0x3a6bbf34	0.000899303
81	0x3bab4cf6	0.0052276803
82	0x3afda93f	0.0019352807
83	0x8000002f	-6.6e-44
84	0x3912fb90	0.0001401736
85	0xbaf51c6b	-0.0018700486
86	0x3b010592	0.0019687158
87	0xb9b15f48	-0.0003383106
88	0x3abc8562	0.0014383013
89	0xba8e41aa	-0.001085331
90	0xba0134cb	-0.0004928826
91	0x3bb9a42a	0.005665322
92	0x39faa2c9	0.00047805
93	0x356125bf	8.387396e-07
94	0xbb472bbf	-0.0030391065
95	0xbb090814	-0.0020909356
96	0xbb662bfc	-0.0035121432
97	0x3c0db9e0	0.008650273
98	0x8000002a	-5.9e-44
99	0x3965837a	0.0002188812
100	0x3a37050e	0.0006981649
101	0x3a845a26	0.0010097667
102	0xbad97450	-0.001659045
103	0xbaf7a508	-0.0018893788
104	0x3ac5e4a0	0.0015098043
105	0xbaf750e9	-0.0018868718
106	0x3ae05930	0.0017116424
107	0xbc3f1da0	-0.011664778
108	0xbabe233f	-0.0014506354
109	0xba1f6783	-0.0006080793
110	0x38683979	5.5366636e-05
111	0x3b3bb3ba	0.002864106
112	0xbb070c64	-0.002060675
113	0x3c4e88a4	0.01260582
114	0x3b471261	0.0030375945
115	0xba9d65f5	-0.0012008535
116	0xbc1e12be	-0.009648023
117	0xba339d17	-0.00068517163
118	0xbadfc902	-0.0017073455
119	0xbc20d873	-0.0098172305
120	0xbaa4e8f5	-0.0012581634
121	0xb921401e	-0.00015378042
122	0x37910498	1.7287486e-05
123	0x399d5499	0.00030008404
124	0xba1b539b	-0.0005925239
125	0xba878748	-0.001034
126	0x8005f7a2	-5.48011e-40
127	0xbcdb5698	-0.02677469

action_net.6.weight f4 [2, 128]
0	0xbd2fd151	-0.04292423
1	0xbc583c31	-0.0131979445
2	0x3d0f4e16	0.034986578
3	0xbd122161	-0.035676364
4	0x3d753fd7	0.059875336
5	0x3d7da517	0.06192502
6	0x3a97c5d5	0.0011579344
7	0xbd728456	-0.059208237
8	0xbdbb8c3e	-0.091576084
9	0x3b08b620	0.0020860508
10	0x3d9c37ed	0.076278545
11	0x3d6cb864	0.057793036
12	0x3a50847e	0.0007954313
13	0xbd4b49c9	-0.049630914
14	0x3cb8871e	0.022525366
15	0x3cfc9db9	0.030836927
16	0x3c1af234	0.00945716
17	0x3d8ca6ce	0.06867753
18	0x3c19aa7f	0.009379028
19	0x3d9a7637	0.07542079
20	0x3c7a01c9	0.015259215
21	0x3b7cb722	0.0038561304
22	0x3d3842db	0.044985633
23	0xbc806281	-0.01567197
24	0xbc472185	-0.012153988
25	0x3d978487	0.073983245
26	0x3dad931c	0.084753245
27	0x3d87c199	0.06628723
28	0xbcc8d4bd	-0.024515504
29	0x3d9afde3	0.07567956
30	0xbd221e7e	-0.03957986
31	0xbd3e3d79	-0.046445344
32	0xbda50dde	-0.080592856
33	0xbc8b85e0	-0.01703161
34	0xbd82d7f0	-0.06388843
35	0xbcd97646	-0.026545655
36	0xbba0fda2	-0.004913048
37	0xbc221cd3	-0.009894568
38	0xbcd86ac7	-0.026418103
39	0xba653d1b	-0.0008744762
40	0xbda5514a	-0.08072145
41	0xbdb934a0	-0.090432405
42	0x3c9041f1	0.017609568
43	0xbdb3c967	-0.08778649
44	0xbd5241aa	-0.051332153
45	0xbd3059e9	-0.043054495
46	0x3ca0c8e8	0.01962705
47	0xbc4415df	-0.011968105
48	0x3c2ae07e	0.0104295
49	0x3db2577c	0.087080926
50	0x3c891ff8	0.016738877
51	0xbd38af4d	-0.045089055
52	0x3c5a36b8	0.01331871
53	0x3d5e6bee	0.05430215
54	0x3d74fe16	0.059812628
55	0x3ccf6f24	0.02532155
56	0x3da4a722	0.080396906
57	0x3d8c10bf	0.068391316
58	0xbcfcf4cc	-0.030878447
59	0xbd7f05ba	-0.06226132
60	0xbd8f55cb	-0.069987856
61	0xbb2e89ac	-0.0026632352
62	0x3c5fd3fd	0.013661382
63	0xbd05ea6e	-0.032694273
64	0x3cfafd21	0.03063828
65	0x3d2e92bc	0.042620406
66	0x3d09aafb	0.033610325
67	0xbb1506e9	-0.0022739714
68	0x3d44f69d	0.04808675
69	0xbc606651	-0.013696269
70	0xba3d8e0d	-0.0007230945
71	0xbd2bf4f7	-0.041981664
72	0xbc1ca84e	-0.009561611
73	0x3d9e6110	0.07733357
74	0xbd0f57ec	-0.03499596
75	0x3d9ef617	0.07761782
76	0x3d020e53	0.031751942
77	0xbd1706fb	-0.03687189
78	0xbd991e36	-0.074764654
79	0x3d83af36	0.06429903
80	0x3d852efc	0.06503102
81	0xbbf910b7	-0.0076008695
82	0xbce4cf30	-0.027930826
83	0x3beb35a6	0.0071780263
84	0x3d88ec05	0.06685642
85	0x3c57e5dd	0.013177362
86	0x3db17172	0.08664216
87	0xbd98cab9	-0.07460541
88	0x3d205d2a	0.03915135
89	0xbd8ad7c7	-0.067794375
90	0xbd8014dc	-0.062539786
91	0xbd962b8a	-0.07332523
92	0x3d801cf5	0.06255523
93	0xbc88c6e2	-0.016696397
94	0xbd6570eb	-0.05601589
95	0xbc9343e7	-0.017976714
96	0x3d562765	0.052283663
97	0x3d8e93a6	0.069617555
98	0xba4f8782	-0.00079166156
99	0x3dabcc1f	0.083885424
100	0x3c2d84fa	0.010590786
101	0xbd0ae1c2	-0.033906706
102	0x3cbf9343	0.02338565
103	0x3b3e8958	0.0029073562
104	0x3dc22f19	0.094816394
105	0xbcc7a840	-0.02437222
106	0x3b83dd76	0.004024203
107	0xbd9cb575	-0.07651798
108	0xbc6413b7	-0.013920716
109	0x3d289a8c	0.041163012
110	0x3cfe19a0	0.031018078
111	0x3caeb639	0.021327125
112	0x3c248477	0.010041348
113	0xbd72957d	-0.059224594
114	0xbb930d91	-0.004487701
115	0xbd8916e1	-0.06693817
116	0xbb0a7d52	-0.0021131826
117	0xbbb872ea	-0.005628933
118	0xbc7e80e8	-0.015533663
119	0xbb6125c8	-0.0034354795
120	0x3b4de976	0.003141967
121	0x3d29aa93	0.041422438
122	0xbd08613a	-0.033295847
123	0x3ce83938	0.028347597
124	0x3d7b8f8b	0.06141619
125	0xbd54c12f	-0.051942047
126	0xbc2c3ce9	-0.010512569
127	0xbd338edb	-0.04383741
128	0x3ccd8e6c	0.025092326
129	0x3c70f1aa	0.014706055
130	0x3d84e094	0.064881474
131	0x3d154fac	0.036452934
132	0x3cd28a19	0.025700616
133	0xbda8c199	-0.08240051
134	0xb9dc9494	-0.0004207237
135	0x3d5d050e	0.0539599
136	0xbbfdf9f7	-0.0077507454
137	0xbb02a2cc	-0.001993346
138	0xbd7452db	-0.05964933
139	0xbc8bcb3b	-0.017064681
140	0xbd352a71	-0.04422993
141	0xbc18016d	-0.009277684
142	0xbd971f98	-0.07379073
143	0xbd73c77e	-0.059516422
144	0x3db51735	0.08842317
145	0x3d069b46	0.032862924
146	0x3da4a59d	0.08039401
147	0xbd4214e3	-0.0473832
148	0x3d7222cb	0.059115212
149	0x3c972fa9	0.018455343
150	0x3d76aa3a	0.060220934
151	0xbd2467e6	-0.040138148
152	0x3d57a1af	0.052644428
153	0xbdabd8b4	-0.08390942
154	0xbc2232fa	-0.009899849
155	0x3d493050	0.04911834
156	0x3d802714	0.062574536
157	0xbccacf6d	-0.024757111
158	0xbb85cfcd	-0.0040836097
159	0xbc8af543	-0.016962653
160	0x3d560e5d	0.05225979
161	0xbcbfa9f7	-0.023396475
162	0xbd94e7dc	-0.07270786
163	0xbd8f6a43	-0.0700269
164	0xbd2c5afd	-0.04207896
165	0x3ce0b808	0.027431503
166	0xbcc7e6ad	-0.024401987
167	0x3a2019aa	0.000610734
168	0xbd1a50f4	-0.03767486
169	0x3bb43819	0.0054998514
170	0xbc8fd6d4	-0.017558493
171	0xbd21b85a	-0.039482452
172	0xbd7cef07	-0.06175139
173	0x3d8cd1ee	0.068759784
174	0xbd182739	-0.03714678
175	0xbd5874f0	-0.052845895
176	0x3cfd650c	0.030931972
177	0xbd9d851e	-0.07691406
178	0x3d296b27	0.041361954
179	0xbcd85645	-0.026408324
180	0x3d91c8c2	0.0711837
181	0x3da4bc5c	0.08043739
182	0x3d703ddf	0.058652755
183	0x3ca63ed0	0.020293623
184	0x3d1c557b	0.038167458
185	0xbd99100b	-0.07473763
186	0xbd3cc91a	-0.046090223
187	0x3d6d5507	0.057942417
188	0xbc7415f6	-0.014897814
189	0x3d1360b0	0.03598088
190	0xbc9b1028	-0.018928602
191	0xbd026b18	-0.031840414
192	0x3daf8086	0.08569436
193	0xbc318668	-0.010835268
194	0xb9302baa	-0.00016800934
195	0xbd63ae16	-0.055585943
196	0x3d9e00a2	0.077149644
197	0xbcf6bc88	-0.030119196
198	0x3a3dbc0f	0.0007237801
199	0xbc06b96b	-0.008222918
200	0x3b35058c	0.0027621714
201	0xbc6679f7	-0.014067165
202	0x3d016a69	0.03159562
203	0x3d9af62f	0.07566487
204	0xbd90ed71	-0.07076538
205	0xbda3fc56	-0.08007114
206	0x3c371667	0.011174775
207	0x3d9c53b8	0.076331556
208	0x3c4b5dc3	0.012412491
209	0x3d852d41	0.06502772
210	0xbc49ccdc	-0.012316909
211	0xbd99f365	-0.07517127
212	0x3ab12c11	0.0013517161
213	0xbc6d5457	-0.01448544
214	0xbd64388e	-0.055717997
215	0xbd07bbe7	-0.033138182
216	0xbc5ebd3a	-0.01359492
217	0x3d4d8fa3	0.05018581
218	0xbb99ae41	-0.004689962
219	0x3c055ed9	0.008140289
220	0x3d885f35	0.06658784
221	0xbcfbb5c4	-0.030726321
222	0x3d2281a6	0.039674424
223	0xbda7a14a	-0.0818506
224	0x3cef03d0	0.029176623
225	0xbd0608fa	-0.032723404
226	0x3a5242d1	0.00080208207
227	0xbc9d055f	-0.0191676
228	0xbb4efa96	-0.0031582466
229	0xbc0c5977	-0.008566252
230	0xbda7eb0c	-0.081991285
231	0xbc0ed3a5	-0.008717452
232	0xbd79cf8c	-0.060988948
233	0xbd03ea83	-0.03220607
234	0xbba79363	-0.0051140054
235	0x3c8cf0fc	0.017204754
236	0xbb5c9e7f	-0.0033663807
237	0x3d01bde2	0.031675227
238	0xbcef1200	-0.029183388
239	0xbc509d87	-0.01273287
240	0xbce6c687	-0.028170837
241	0x3c65d69b	0.014028217
242	0x3cc2a629	0.023760872
243	0x3d80438a	0.06262882
244	0x3d3062da	0.043063022
245	0x3da4ef50	0.08053458
246	0x3d1807a2	0.037116654
247	0x3d8e29cd	0.069415666
248	0xbb06531f	-0.0020496321
249	0x3d8401c0	0.06445646
250	0xbd34035f	-0.043948527
251	0x3c58042c	0.013184588
252	0x3d03f8b7	0.032219615
253	0x3d7e1e90	0.062040865
254	0x3d04a06f	0.032379564
255	0x3d9bde02	0.07610704

action_net.6.bias f4 [2]
0	0x3b2c3594	0.0026277052
1	0xbae069fc	-0.001712143

gc1.weight f4 [12, 128]
0	0xbd80cd69	-0.06289179
1	0xbc964358	-0.018342659
2	0xbd0187ea	-0.03162376
3	0x3d3a41fe	0.04547309
4	0x3cbb9f79	0.02290319
5	0x3d825c27	0.06365233
6	0x3d2ab95a	0.04168067
7	0x3d17fbc0	0.037105322
8	0xbca88cb8	-0.020574912
9	0x3c41aafc	0.011820551
10	0xbcabf62d	-0.02099141
11	0x3d867165	0.06564597
12	0x3d78e555	0.060765583
13	0x3b1ac41a	0.002361542
14	0xbca86f60	-0.02056092
15	0x3de2d11a	0.11075039
16	0xbd8c8bf6	-0.06862633
17	0x3db47b65	0.08812598
18	0xbd2b05a2	-0.04175342
19	0xbc5f5695	-0.013631483
20	0x3d573be9	0.05254737
21	0x3daf1f3f	0.085508816
22	0x3d3062d3	0.043062996
23	0x3ad67cdb	0.0016364114
24	0x3bc55946	0.006022605
25	0xbcc97a4b	-0.024594447
26	0x3d159e82	0.036528118
27	0xbc4ec8bb	-0.0126211
28	0x3cd73fcf	0.026275543
29	0x3d5713eb	0.05250923
30	0xbd5de9f5	-0.054178197
31	0xbd8f3a26	-0.06993513
32	0x3da4f5f4	0.08054724
33	0xbd171803	-0.036888134
34	0xbabe79bc	-0.0014532129
35	0xbd54276e	-0.051795416
36	0x3d8b0e99	0.06789894
37	0x3da2f99f	0.07957768
38	0x3d7c9e7e	0.061674587
39	0x3d55324a	0.052049913
40	0xbd9b3c9f	-0.07579922
41	0xbd8f846f	-0.070076816
42	0xbc358fe2	-0.011081668
43	0x3ac9438a	0.0015355211
44	0x3d0e3c22	0.034725316
45	0xbd43439f	-0.04767191
46	0xbd1f40fd	-0.038880337
47	0xbd98cc36	-0.07460825
48	0xbd923adf	-0.07140135
49	0x3d688994	0.05677183
50	0x3d0d4455	0.034488995
51	0x3d82a7ef	0.06379687
52	0xbd717395	-0.05894812
53	0xbdaa403a	-0.083130315
54	0x3d15e1f1	0.036592428
55	0xbdb54927	-0.08851843
56	0x3d6087cc	0.054817006
57	0x3d8e2dfb	0.06942364
58	0xbd1c3077	-0.038132157
59	0xbd8be859	-0.06831426
60	0xbcb3216a	-0.021866519
61	0x3d714f28	0.05891338
62	0xbd497b6d	-0.049189974
63	0xbc1c9e34	-0.009559203
64	0x3d2378ac	0.039910004
65	0x3d6e29d5	0.058145363
66	0x3d87e662	0.06635739
67	0x3ca33b63	0.019925779
68	0x3d3ca009	0.04605106
69	0x3d8cab76	0.06868641
70	0xbd07c536	-0.03314706
71	0xbdb4ac87	-0.088219695
72	0xbdd2b132	-0.102877036
73	0xbd217f37	-0.039427962
74	0xbd75efd5	-0.060043175
75	0x3d2a7bd1	0.041621987
76	0xbd65a2bf	-0.05606341
77	0xbb0a705f	-0.0021124107
78	0xbc9cdaa0	-0.019147217
79	0x3c521834	0.012823153
80	0x3cf030a2	0.029320065
81	0xbda2d96b	-0.079516254
82	0x3d937a98	0.07201117
83	0x3c9276a7	0.017878843
84	0xbd36cf0e	-0.044631056
85	0xbb84d8c8	-0.0040541627
86	0xbd85b467	-0.0652855
87	0x3cac6c7e	0.021047827
88	0xbd23e895	-0.04001673
89	0x3d2a03e1	0.041507605
90	0xbd67b5ac	-0.05656974
91	0x3baa536e	0.005197934
92	0x3c3ab37e	0.011395333
93	0x3d181787	0.037131812
94	0x3da6873a	0.08131261
95	0x3cd86a40	0.026417851
96	0x3d90a2ca	0.070622995
97	0xbd9c0299	-0.07617683
98	0xbd8c432f	-0.06848752
99	0x3c91592a	0.017742712
100	0x3d7c683a	0.061622836
101	0x3d357550	0.04430133
102	0xbcc32a46	-0.023823868
103	0xbd1a2325	-0.037631173
104	0x3d46013d	0.048341025
105	0xbcec7ca2	-0.028868023
106	0x3d2e5b42	0.0425675
107	0x3d6feee8	0.058577448
108	0x3c94c449	0.018160002
109	0xbd29b15f	-0.04142892
110	0x3bb76c76	0.0055976463
111	0x3d941f80	0.07232571
112	0x3c693613	0.014234084
113	0x3ad611ff	0.0016332268
114	0x3d52185d	0.051292766
115	0x3b09420b	0.0020943906
116	0x3c200c48	0.009768553
117	0x3d8b4d3c	0.06801841
118	0xbd92c556	-0.07166545
119	0x3d580877	0.052742448
120	0xbd8fc20a	-0.07019432
121	0xbd39f630	-0.0454008
122	0x3c558a26	0.013033425
123	0x3beac550	0.0071646348
124	0xbd59a12a	-0.053132214
125	0x3d256609	0.04038051
126	0x3d58caae	0.052927665
127	0x3b1a1606	0.0023511662
128	0x3d9c679e	0.07636951
129	0xbcba48fc	-0.02273988
130	0xbd0d2748	-0.03446129
131	0xbdb4f060	-0.088349104
132	0x3d9892aa	0.07449849
133	0x3d1e0889	0.03858236
134	0xbc5eb0cd	-0.013591957
135	0xbc49a1b1	-0.012306617
136	0xbd26c71f	-0.04071724
137	0xbcb28f06	-0.021796715
138	0x3ce6f960	0.028195083
139	0xbd2c70d7	-0.0420998
140	0xbd430a65	-0.047617335
141	0xbd41b053	-0.047287297
142	0xbd8d70f8	-0.06906313
143	0xbb25dd36	-0.0025308854
144	0xbd354e0a	-0.044263877
145	0x3d37374c	0.04473047
146	0x3db39c7c	0.087700814
147	0xbc9a0654	-0.018801846
148	0x3d0be08c	0.03414969
149	0x3d2ac45b	0.041691165
150	0xbd360e85	-0.04444744
151	0xbd428601	-0.047491077
152	0xbb0b8e94	-0.00212947
153	0x3d3b4e6b	0.045729082
154	0xbd16e620	-0.036840558
155	0x3cab9bc1	0.020948293
156	0xbc9bb569	-0.019007402
157	0xbd932d04	-0.071863204
158	0x3c4e19a2	0.0125793535
159	0x3d9d38d2	0.07676853
160	0x3dabeaf4	0.08394423
161	0x3d8143cc	0.06311759
162	0x3d2e4c5c	0.04255329
163	0xbcfcfa2f	-0.030881016
164	0x3d0ecc22	0.034862645
165	0xbcb7a1e9	-0.022416072
166	0xbd9e5f64	-0.07733038
167	0x3cb09134	0.021553613
168	0x3d924420	0.071419
169	0x3d33d42b	0.04390351
170	0xbd38e11d	-0.04513656
171	0xbd7ab7cb	-0.061210435
172	0x3ba6ee18	0.005094301
173	0xbbc42070	-0.005985312
174	0xbb739ce3	-0.003717237
175	0x3d0e3a78	0.03472373
176	0x3cf3579b	0.02970486
177	0x3d56fcc1	0.05248714
178	0xbc8e6e13	-0.017386472
179	0xbd8b51ee	-0.06802736
180	0xbbabbf73	-0.0052413284
181	0xbd8ff45d	-0.070290305
182	0xbc84e753	-0.016223585
183	0x3c0b424e	0.008499695
184	0x3c49610a	0.012291202
185	0x3d1646ae	0.0366885
186	0xbc8cf982	-0.017208818
187	0xbd9f0e22	-0.077663675
188	0xbced59e8	-0.028973535
189	0x3d849947	0.06474548
190	0xbd2c3d55	-0.04205068
191	0x3d355a51	0.044275586
192	0xbd1f7b51	-0.038935963
193	0xb9070b16	-0.00012878733
194	0xbc40d30a	-0.011769066
195	0x3cfe533f	0.031045554
196	0xbd6ddc4e	-0.058071427
197	0x3c35519a	0.011066819
198	0x3d63d86e	0.055626325
199	0xbd7ff642	-0.06249071
200	0xbd378174	-0.04480119
201	0x3bf9cda8	0.007623393
202	0xbd47534c	-0.048663422
203	0xbc5dfad9	-0.013548576
204	0x3d867a6f	0.06566321
205	0x3d22a268	0.039705664
206	0xbcd492c8	-0.025948897
207	0xbd9d8452	-0.07691254
208	0x3d0bce90	0.03413254
209	0x3cb7d398	0.022439763
210	0x3cdf7b9e	0.027280625
211	0x3c782234	0.015144873
212	0xbd817b56	-0.063223526
213	0x3d0a60ec	0.03378384
214	0xbd887c5b	-0.06664344
215	0xbb96fb89	-0.004607622
216	0x3d63a705	0.055579204
217	0x3d43f51c	0.047841176
218	0xbd293850	-0.04131347
219	0x3d28d223	0.041216027
220	0xbd33a798	-0.043861
221	0xbd25cbf2	-0.0404777
222	0xbc84cd85	-0.01621128
223	0xbc5392ae	-0.012913389
224	0x3d9120e5	0.07086352
225	0x3d15729b	0.03648625
226	0xba6ea992	-0.00091042474
227	0x3d1b1cfa	0.03786943
228	0xbd843f87	-0.064574294
229	0xbd56db0b	-0.05245499
230	0xbbb7473b	-0.005593208
231	0x3d08b26b	0.033373278
232	0xbd6ca2a1	-0.057772283
233	0xbc32a07d	-0.010902521
234	0x3d56190c	0.05226998
235	0xbd36087a	-0.044441678
236	0x3d26a9d0	0.04068929
237	0x3daafb84	0.08348754
238	0xbcbbf1fb	-0.022942534
239	0xbd648b86	-0.055797122
240	0x3cb8a06f	0.022537438
241	0xbd53a900	-0.051674843
242	0xbd52976c	-0.05141394
243	0xbbde659a	-0.006787014
244	0x3d51351f	0.05107605
245	0x3c7fcead	0.01561324
246	0xbd7d24b9	-0.0618026
247	0xbd78eed0	-0.060774624
248	0xbd75988c	-0.059959933
249	0x3c9fbe3f	0.019499896
250	0xbd983321	-0.07431627
251	0x3cb7c39e	0.022432145
252	0x3dad6af9	0.08467669
253	0x3c1e7e0e	0.0096736085
254	0xbc07817c	-0.008270618
255	0x3cae5162	0.02127904

gc1.bias f4 [128]
0	0xbd89c6ab	-0.06727346
1	0xbd373384	-0.044726864
2	0xbd5e2463	-0.05423392
3	0x3c2c76ef	0.010526403
4	0x3b13aad0	0.0022532232
5	0xbd0ea8eb	-0.03482906
6	0xbce7ef10	-0.028312236
7	0x3d413df7	0.047178235
8	0xbd90b7f2	-0.07066335
9	0x3b919032	0.0044422382
10	0xba4cc8a7	-0.0007811882
11	0xbd1f3a3b	-0.038873892
12	0xbcd9bad5	-0.026578346
13	0x3db8be16	0.09020631
14	0x3d8c0f35	0.06838838
15	0x3c549c89	0.012976774
16	0xbcca36b7	-0.024684293
17	0x3d8b5234	0.068027884
18	0x3d0ff19a	0.03514252
19	0x3d84fcaf	0.06493508
20	0x3b85086f	0.0040598433
21	0x3b0209bf	0.0019842235
22	0xbd232aae	-0.039835624
23	0xbd977c77	-0.07396787
24	0x3a894693	0.0010473303
25	0x3bdf6f34	0.0068186764
26	0x3c48b167	0.012249327
27	0x3d8e95ec	0.06962189
28	0xbcf01bc2	-0.029310111
29	0xbc5dc6ac	-0.013536137
30	0x3a6049b1	0.0008555903
31	0x3cde88c0	0.027164817
32	0x3c14a118	0.009071611
33	0xbd660687	-0.05615857
34	0x3d823f46	0.06359725
35	0x3d851420	0.06497979
36	0x3cba2878	0.022724375
37	0xbc0f0138	-0.008728318
38	0x3d4cad56	0.049969994
39	0x3c90fa24	0.017697401
40	0xbc292a40	-0.010325015
41	0xbd577dd8	-0.05261025
42	0x3d23e2e3	0.040011298
43	0x3cd5f424	0.026117392
44	0x3c8795a7	0.016550852
45	0xbc2b0e69	-0.010440447
46	0x3cd3b08a	0.025841016
47	0x3d8ce674	0.06879893
48	0x3d3e7170	0.0464949
49	0x3d95bb70	0.073111415
50	0xbd523c97	-0.051327314
51	0xbce3cde1	-0.027808132
52	0xbcd72f2a	-0.026267607
53	0x3d44346d	0.04790156
54	0xbd320b35	-0.04346772
55	0xbd0f5b61	-0.034999255
56	0x3bb80f29	0.0056170416
57	0x3d536dcc	0.051618382
58	0x3b031e88	0.0020007212
59	0xbc8689d2	-0.01642314
60	0x3b96fba6	0.0046076356
61	0xbd6c7e01	-0.057737354
62	0x3cd5e7ed	0.026111567
63	0xbb4284f6	-0.0029681302
64	0x3d6f74a5	0.05846085
65	0xbd14b64b	-0.03630666
66	0x3cfadcf0	0.03062293
67	0x3c41b763	0.011823508
68	0x3beb07ec	0.007172575
69	0x3c0a177c	0.008428451
70	0xbd819ba7	-0.063285165
71	0x3caa4370	0.02078411
72	0x3d1bb0a1	0.038010243
73	0xbbe605c4	-0.0070197303
74	0xbd75711e	-0.05992233
75	0x3b7c45be	0.0038493718
76	0x3da621ab	0.081118904
77	0x3bc0fc3a	0.0058894427
78	0x3b054ca7	0.0020339878
79	0x3d4f62cc	0.05063133
80	0x3d1aa061	0.037750605
81	0xbbfeed3c	-0.0077797454
82	0x3d0831f3	0.03325076
83	0xba22af5c	-0.000620594
84	0x3d73d5b2	0.059529968
85	0x3bb2efe8	0.005460728
86	0xbc6d07f6	-0.01446723
87	0x3bbdb102	0.0057889232
88	0xbd823608	-0.06357962
89	0x3cefbe8b	0.029265663
90	0x3bc2f6c4	0.005949827
91	0x3d9d06ae	0.0766729
92	0x3d7acd60	0.061231017
93	0x3ce69aad	0.028149927
94	0x3c0e1f58	0.008674465
95	0xbc241ec4	-0.010017101
96	0x3c94ea97	0.018178267
97	0x3b274ba6	0.0025527268
98	0xbd626722	-0.055274136
99	0xbca327a4	-0.019916363
100	0x3c291ef7	0.010322324
101	0xbd7e42bf	-0.062075373
102	0x3c468e30	0.012118861
103	0x3da09db4	0.078425795
104	0xbbe24d15	-0.0069061616
105	0x3c9c6d97	0.019095225
106	0xbcb93783	-0.022609478
107	0x3c83d351	0.016091974
108	0xbb2870c9	-0.002570199
109	0xbd18ee4a	-0.037336625
110	0x3d34fbd4	0.044185475
111	0xbd907f15	-0.07055489
112	0x3db74937	0.089495115
113	0x3c0454ac	0.008076828
114	0x3d1ce507	0.038304355
115	0xbcd68d69	-0.026190476
116	0x3d40719c	0.046983346
117	0x3d9c5c51	0.076347955
118	0xbd35c4c2	-0.044377096
119	0x3d4122c6	0.047152303
120	0xbca3da90	-0.02000168
121	0x3c14e450	0.009087637
122	0x3d305072	0.04304547
123	0x3d8157ca	0.063155726
124	0x3d43a723	0.047766816
125	0xbc6ada6b	-0.014334301
126	0x3b84fa4f	0.0040581594
127	0x3ac4a947	0.0015004062
