elina_oct/opt_oct_lait.pt (torch_old, 341173 bytes, 14 tensors)

action_net.0.weight f4 [128, 128]
000000 3c 7d e0 3c b5 66 39 bd fa 82 9c bd f1 cc 0e 3d
       0.027403466 -0.045263965 -0.07642169 0.034863416
000010 44 f5 a8 bd b7 3a 23 3d d9 94 a9 bc 24 f7 ad 3c
       -0.08249906 0.039850917 -0.020700859 0.02123601
000020 a4 56 ac bc 68 74 80 bc 24 1b da 3c 5a 13 7f bb
       -0.021037407 -0.015680507 0.02662427 -0.0038921447
000030 c7 a2 f8 3b 7f be 85 bc 47 44 b0 bc d6 bf eb bb
       0.007587764 -0.016326187 -0.021516932 -0.0071944995
000040 3e 2b 3e a0 15 d4 4b b9 3e bf b7 3d 52 8f 06 3d
       -1.6107934e-19 -0.00019438595 0.089720234 0.032851525
000050 97 36 4a bd 1e ff b2 bd eb 11 a4 bc f5 72 8a bd
       -0.049368467 -0.08740066 -0.020028075 -0.067602076
000060 93 05 cd bc fe 06 8e bb 8b 72 48 3d 69 94 26 3d
       -0.025027072 -0.0043343296 0.04893736 0.04066888
000070 50 b5 9c bd e4 e8 84 bb 35 a1 dc bb e0 8c 6f 3d
       -0.0765177 -0.004056083 -0.0067330846 0.05848396
000080 98 6e 57 3d f5 b0 ad bd d4 58 f4 bd f6 7f 64 bd
       0.052595705 -0.084810175 -0.11931005 -0.055786096
000090 a6 b5 93 3d 1d 2e 0d bd d4 3d 39 bc 82 77 38 bd
       0.07212381 -0.034467805 -0.011306245 -0.045035847
0000a0 58 71 43 3d 78 f7 8a bd 9f 73 82 3d 9b 27 4e 3c
       0.047715515 -0.06785482 0.06369709 0.012582685
0000b0 4e 7e 51 bd c5 8a c2 3c 6e 86 3a bd 78 24 86 3b
       -0.051145844 0.023747811 -0.04553836 0.004093703
0000c0 8c ce bd bc 7e cc d6 ba f2 99 ab bb 16 39 40 bd
       -0.023169778 -0.0016387848 -0.0052368576 -0.04692944
0000d0 9f d3 58 3d fe 76 37 bc 02 f0 ae 3d 7c 9e 06 80
       0.052936193 -0.011197804 0.085418716 -6.07866e-40
0000e0 b1 ca 6f bc 50 de 9d bd 94 e2 b2 3c de 60 a4 3c
       -0.014635728 -0.07708418 0.021836556 0.020065721
0000f0 ed f4 6b bd 96 a3 69 3d 86 ff 86 3d b0 a7 95 3d
       -0.057606626 0.057040773 0.06591706 0.073073745
000100 14 c2 91 bd 5d 39 34 bd 3b a3 86 ba 52 78 88 bb
       -0.071170956 -0.04400002 -0.0010272035 -0.004164734
000110 ef bf 9a 3c 65 e4 8e bd 5e dc 57 3d 08 18 df bc
       0.01889035 -0.069771565 0.052700393 -0.027233139
000120 74 27 be 3c af 5f 8b bc 60 1e 2a 3c 6d 5a c0 3c
       0.023212172 -0.017013399 0.0103832185 0.023480618
000130 95 d7 7e 3c fb da 0e 3d 2b 6a 03 be 38 c2 15 3d
       0.015554328 0.034876805 -0.12833469 0.036562175
000140 0c 20 73 bd d4 32 87 bd e3 9b a9 bb 31 6a 82 bc
       -0.059356734 -0.066014916 -0.005176054 -0.015919777
000150 9a e5 2c 3d 6d da 4f bd 73 21 30 bd 85 14 04 00
       0.042211153 -0.050745416 -0.04300065 3.74703e-40
000160 5e 5c a6 bc 70 01 04 3d a6 cd 2c bc 1e 68 c0 bd
       -0.020307716 0.032227933 -0.010547077 -0.09394859
000170 4a 2b 7f bc d3 6d 25 3d e1 f4 7e bd bb f9 80 bd
       -0.015574286 0.04038794 -0.062245253 -0.06297632
000180 52 35 03 3b 84 33 a2 bb dd 2f 90 bd 41 6f 48 bd
       0.0020020795 -0.004949989 -0.07040379 -0.048934225
000190 d2 f6 96 3d 17 db 4d bd 30 be a3 3c 9c 2b 2c 3d
       0.07371296 -0.05025777 0.01998815 0.042033777
0001a0 90 5b 82 bd fc 2c a6 bd b0 9a 47 3d e5 57 47 bc
       -0.063651204 -0.08114049 0.048731506 -0.012166952
0001b0 26 88 d6 3c 0f 76 3a 3c cc 0f 02 3d ca f9 12 3d
       0.026187968 0.011380686 0.031753346 0.03588275
0001c0 38 97 a7 3d ac 99 8a bd 69 e0 64 bc 69 15 82 3d
       0.081831396 -0.06767592 -0.013969519 0.0635174
0001d0 54 ab 76 3d 20 63 53 3d c1 46 d4 bd 4e 67 6c bd
       0.060221985 0.051608205 -0.10365058 -0.057715707
0001e0 45 dc 93 bd 4d 20 2a bc 7b c4 5b 3d 4c 80 93 bd
       -0.072197475 -0.010383678 0.053654175 -0.07202205
0001f0 2e f1 2d 3d 10 1b 4b bd 2a bb ad bd 0e 1b f7 bb
       0.042466335 -0.049586356 -0.08482964 -0.007541067
000200 e4 52 2c 3d b8 8d 9c 3d e4 18 2e bd b3 fc a4 3c
       0.04207124 0.07644218 -0.042504206 0.020140028
000210 5e a1 90 3d 66 6e 6c 3d e5 26 4d 3d 7e f0 6d 3d
       0.07062028 0.05772247 0.05008592 0.05809068
000220 4a a2 52 3d f3 d6 99 3c 2b cc 80 bd a2 50 9b bd
       0.051424302 0.018779254 -0.06288942 -0.07583739
000230 82 b0 39 bd 2e ef bd bc b6 3c 7f bd b5 87 f8 3c
       -0.045334347 -0.023185339 -0.062313758 0.030338148
000240 51 cb 05 ba 39 e4 b4 bc 2b 43 27 3c c7 18 dd 3c
       -0.0005103844 -0.022081481 0.010208885 0.026989354
000250 0f 15 4e 3d 84 e7 60 3d dd f4 05 bd 80 0c a8 3d
       0.05031305 0.05490829 -0.032704223 0.08205509
000260 38 b2 4a bc fe a1 2a bc 1e 1a b9 bd 14 1b 82 bd
       -0.012371592 -0.0104145985 -0.090381846 -0.06352821
000270 5b b0 8a bd 55 aa a6 bc 9c 8b 78 3d 1e 0b 3b b9
       -0.067719184 -0.020344893 0.060680017 -0.00017837851
000280 65 4c 8b bd 0f 69 07 3d 53 7a b2 3c 3a 80 66 3d
       -0.068016805 0.033059176 0.021786844 0.05627463
000290 85 ac 48 bd 98 3d 88 3c 6e ed 14 bd 33 aa d9 bc
       -0.048992652 0.016630933 -0.036359243 -0.026570415
0002a0 49 29 7c bd 01 ca 2f bd 69 5e 07 bd de 17 43 bc
       -0.06156281 -0.042917255 -0.03304902 -0.011907546
0002b0 e6 31 08 bd 83 c2 a1 3c f7 c9 ae 3d 99 f7 fe 3d
       -0.03325071 0.01974607 0.085346155 0.12449569
0002c0 54 fa 41 3d b7 cd d2 bc 1c 8e 35 3d 01 2e 80 3d
       0.047357872 -0.025732858 0.04432498 0.062587745
0002d0 ee f8 ec bc 1f 8f 65 bc fe 82 a0 bd c4 58 0b 80
       -0.028927293 -0.0140111735 -0.07837485 -1.042034e-39
0002e0 93 57 71 bd b7 b0 a6 3d 36 56 9f bd 11 26 8f bd
       -0.058921408 0.081391744 -0.07780115 -0.069896825
0002f0 17 75 dd bb 18 89 7f bd 5d 39 e4 3c 51 55 1a bd
       -0.006758343 -0.062386602 0.027859384 -0.03767902
000300 4c d4 15 bd 86 fd 0a bd 67 42 6d bb 5f 44 87 bd
       -0.036579415 -0.033933185 -0.003620291 -0.066048376
000310 22 de 4b 3d d3 40 5e 3d b1 55 a7 3d 95 37 99 bd
       0.04977239 0.05426104 0.08170641 -0.074813046
000320 0a d1 88 3c e2 87 b4 bd 21 66 05 3d b7 f4 1e bd
       0.01670124 -0.0881498 0.0325681 -0.038807597
000330 70 bb 4b 3d 4c b5 ac bc 13 d9 1c bc d1 34 1d bc
       0.0497393 -0.021082543 -0.009573239 -0.009595112
000340 00 b5 81 3c ab 76 17 3d 30 68 4f 3c 05 04 c6 3c
       0.015833378 0.036978405 0.012659118 0.024171839
000350 b8 c8 a9 bd 6b 0b 77 3d 72 a9 f8 3c 45 32 3f bc
       -0.08290237 0.060313623 0.030354235 -0.0116697
000360 d1 7a 81 3d f6 99 8c bd 3a 8d 67 bd cc 8c 96 3d
       0.063222535 -0.06865303 -0.05653117 0.073510736
000370 9c 69 8d bd 78 6b a4 3d 58 df 8a bd cb 46 87 bd
       -0.06904909 0.080283105 -0.06780881 -0.066052996
000380 a4 ca 22 3d e4 c6 1d bd ba b9 c3 bc 1e 5b 80 3d
       0.039744034 -0.038519755 -0.023892272 0.06267379
000390 f3 c7 87 3d 77 13 4f 3d c6 ec 26 bd b7 46 88 bd
       0.06629934 0.050555672 -0.04075315 -0.06654113
0003a0 28 b2 34 3d d9 e1 b0 bc f5 1c 34 bd 36 72 8c 3c
       0.044115216 -0.021592068 -0.043972928 0.017144304
0003b0 25 c9 85 bd 22 e1 5f 3d 51 67 49 3d eb 86 9a bd
       -0.06532506 0.054658063 0.049170796 -0.07545265
0003c0 31 1b 99 bd fd 5d 7c bc 9c a3 12 3d 73 5c d6 bb
       -0.074758895 -0.015403268 0.03580056 -0.0065417825
0003d0 3b f1 49 bd 21 83 10 3b 8d fa b2 bd 97 e5 84 bd
       -0.04930232 0.0022050815 -0.08739195 -0.06489103
0003e0 86 3e a7 bd 72 5e d0 3d a2 1e 7a 3d 9a 2f 07 bd
       -0.08166222 0.10174264 0.06106437 -0.03300438
0003f0 72 43 9e 3c 36 28 b5 3c d2 7f f6 3b da 8c 26 b9
       0.01931927 0.0221139 0.0075225616 -0.00015883465

action_net.0.bias f4 [128]
000000 3d d1 01 bc 65 52 50 3d 33 64 1f bd f5 aa 09 3c
       -0.007923421 0.050859828 -0.038913917 0.008402576
000010 9b 5e 09 be 3e a6 e4 bd 81 19 ca bc 5a ea c2 3d
       -0.13414995 -0.11164521 -0.024670364 0.09517355
000020 c7 51 ee 3d dd d3 59 bb 72 c7 ce bd 85 b7 bb bc
       0.116366915 -0.0033237853 -0.10096635 -0.022914657
000030 92 85 63 3e 47 6a 15 bb e4 b1 20 bc da 75 69 bb
       0.22218922 -0.0022798942 -0.009808037 -0.0035623224
000040 09 ce d6 bc 0e a8 f2 bd 12 3f 32 3e 0f a2 f5 3e
       -0.026221292 -0.1184846 0.17406872 0.47975203
000050 41 fb 72 3d 4c e9 12 bd c4 5c 00 bd 5a f1 df 3c
       0.059321646 -0.03586702 -0.03133847 0.027336765
000060 b4 7a 2e 3e b0 6f 7c bd 4a bb bc bb 42 d2 25 3e
       0.17038995 -0.06162995 -0.0057596313 0.16193488
000070 93 f3 55 3b 52 44 e0 3a de 1c 27 3d 25 e1 da 3d
       0.0032646402 0.0017110205 0.040799014 0.10687474
000080 99 52 89 bd 17 e1 83 3e 39 8c 1f 3e 0d 09 62 bd
       -0.067052074 0.25757667 0.15580834 -0.055184413
000090 ca 27 ca 3c f2 3b fb bd 18 ca 24 be 66 7b 84 3d
       0.024677176 -0.12267293 -0.16092718 0.06468849
0000a0 5b 69 1b bd e9 72 35 be e1 fe 09 be 14 bb 0e 3e
       -0.03794227 -0.17719616 -0.13476135 0.13938552
0000b0 fb 26 88 3e 5c be 26 3e 6a a9 31 bb 82 16 31 be
       0.2659224 0.16283554 -0.0027109035 -0.17293742
0000c0 a8 ad be bb bd f1 18 bd 40 c3 87 3d 1e 2a 96 bc
       -0.0058190413 -0.037339915 0.06629038 -0.01833063
0000d0 69 f0 55 bd 5b 98 31 bd 3a 74 54 be 3a 54 7a 3e
       -0.052231226 -0.043358188 -0.20747462 0.24446192
0000e0 b7 0b 27 3c fc 24 4c 3e b1 da cd bd ba 7b fa ba
       0.010195664 0.19935983 -0.10051478 -0.001911036
0000f0 ba c0 48 3d 9b ba 95 3e aa 72 0b bd df 8d b3 3a
       0.049011923 0.2924393 -0.0340449 0.0013698897
000100 81 57 26 3e 1a d5 22 3e c0 32 34 be 0b c8 ac 3e
       0.16244318 0.15901604 -0.17597485 0.3374637
000110 7a f7 33 be 06 32 d6 3d c0 ac fc 3e 4d c8 7a bd
       -0.17574874 0.1045876 0.49350548 -0.061226178
000120 b8 31 19 be 8e ca 61 3e c5 75 b7 bd de 90 04 3d
       -0.14960372 0.22049925 -0.0895801 0.03236472
000130 f9 43 40 3d 27 64 e7 bd 20 fc d9 3c 86 ab 3c 3c
       0.046939824 -0.112983994 0.02660948 0.011515504
000140 98 92 99 bc 01 71 bf bc 10 72 9e bc 33 a8 28 3d
       -0.01874666 -0.023369314 -0.019341499 0.041176032
000150 0e 29 a8 3c 95 e4 c0 3b 32 e9 34 3d ab ab fa 3d
       0.020527389 0.005886624 0.044167705 0.12239774
000160 70 70 ca 3e 03 19 ed bd 92 f6 0c bc e9 36 24 3e
       0.39538908 -0.11577036 -0.008603709 0.16036572
000170 65 ad 13 bd 7f 50 6a 3a aa 92 02 bd 53 df 8b 3e
       -0.036054034 0.00089383865 -0.03187815 0.2731882
000180 26 2d c8 3b 61 c1 15 3e 38 cf 86 3e f3 5e dc 3b
       0.0061088977 0.1462455 0.2632997 0.006725186
000190 68 50 4c 3e ec 75 26 be 88 68 8f 3d bf 9b 0a bd
       0.19952548 -0.16255921 0.0700236 -0.033839937
0001a0 44 a5 42 3e 3e b6 db bc 58 6e 3f be 4a ea 5f 3d
       0.19008356 -0.026820298 -0.18694437 0.054666795
0001b0 f3 09 ff 3d ab dc b9 3d 9c 46 cc bd 07 ce af bc
       0.124530695 0.09075292 -0.09974405 -0.021460546
0001c0 f8 c0 84 3c f4 c9 81 bd 9e c3 37 be d1 32 a5 bc
       0.016205296 -0.063373476 -0.17945716 -0.020165833
0001d0 1c 8e 52 bc b8 05 48 3e 73 a1 92 bc 06 57 0f 3e
       -0.012851264 0.19533432 -0.01789925 0.1399804
0001e0 eb b0 28 3e c4 93 84 be e4 69 6a bc 79 35 d1 3d
       0.16473739 -0.25893986 -0.014307473 0.10215277
0001f0 45 df fa bc 1d 0e 90 3e 23 02 85 3e d9 84 ac 3e
       -0.030624041 0.28135768 0.25978193 0.33695105

action_net.2.weight f4 [128, 128]
000000 e8 64 41 bc 0c 4d b4 3d 56 2a c4 bc 77 c6 ed 3c
       -0.011803843 0.08803758 -0.023945969 0.0290253
000010 12 26 a1 bc 72 e0 99 bd 51 36 a2 ba 71 b3 8d 3d
       -0.019671474 -0.07513513 -0.0012375807 0.06918991
000020 e5 1a b2 bc df 54 1b 3c 8f 1b 55 3d 97 21 ec bb
       -0.02174134 0.009480684 0.052028235 -0.0072061527
000030 f0 92 d4 3d 82 f9 58 3b 4b ab 30 3d 57 48 a5 3d
       0.103795886 0.0033107703 0.043132108 0.08070438
000040 50 47 31 3d 22 6c e7 bb 77 2b f1 3c f6 d5 3e 3d
       0.0432809 -0.007062451 0.029439671 0.046590768
000050 aa 7f 0f bd 9b 6b bb 3c 42 db 96 bd 8e 86 bb bc
       -0.03503386 0.022878459 -0.07366039 -0.02289131
000060 b7 10 a1 3d d8 46 10 bd ee 94 45 bd 89 cf af bc
       0.07864516 -0.035223812 -0.048237734 -0.021461265
000070 66 e0 50 bd 53 27 09 bd ca f9 be bd 19 52 96 bc
       -0.050995253 -0.033484768 -0.09324987 -0.018349694
000080 0d e6 31 3d c9 21 64 bd 87 41 21 3d 35 e0 a7 3d
       0.043432284 -0.055696283 0.039369132 0.08197061
000090 15 c0 de 3a 38 72 34 3d e4 12 0f 3d e9 84 f9 ba
       0.0016994501 0.04405424 0.034930125 -0.0019036803
0000a0 96 ba 6f 3d 4e 27 e2 3c 04 de 8d bd 61 28 96 3d
       0.05852755 0.027606633 -0.06927112 0.073319204
0000b0 87 4e 5c 3d 36 18 9f 3d ca 92 05 bc 2c af 6c bd
       0.053785827 0.0776829 -0.008152673 -0.057784244
0000c0 c9 5b c3 3c 26 ae 9d 3d ad 61 1a 3d da 08 97 bd
       0.023847478 0.07699232 0.037690807 -0.07374735
0000d0 4f ea b5 3d 6b 1d a2 bd 61 97 85 3c ab cf 6a 3c
       0.088825814 -0.07915767 0.016307535 0.014331738
0000e0 71 87 df 3c 35 4e fe 3c d7 95 b0 bc 54 87 cf bb
       0.027286263 0.031043151 -0.021555824 -0.006333271
0000f0 49 07 1f 3c 73 de 23 bd ca 61 cc bd d6 90 62 3d
       0.009706327 -0.040007066 -0.09979589 0.055313908
000100 f0 70 2f 3c 17 01 93 bd e7 16 b3 bc b6 a4 4e 3d
       0.010708079 -0.07177942 -0.021861507 0.05045005
000110 4d 3e 56 3d 11 c9 72 3d 1f 4e b8 3d a5 02 41 3d
       0.05230551 0.059273783 0.089992754 0.047121663
000120 67 74 f0 3c a4 4f 24 3d a4 b1 58 3d 01 ba 40 bc
       0.02935238 0.040115014 0.052903786 -0.011763097
000130 38 83 34 bd e2 a2 0e bd af 72 83 3b e4 9b 73 bd
       -0.044070452 -0.034823306 0.004011474 -0.05947484
000140 7e da 4c bd fe 98 b5 3d 54 22 24 3b 5e 9d 87 3d
       -0.050013058 0.088670716 0.0025044875 0.06621812
000150 e0 33 c9 bc 44 c7 c9 bc c8 a3 67 3d 58 8c ac 3d
       -0.024560869 -0.02463115 0.05655268 0.08425206
000160 c7 69 30 3e 67 8c 32 bd 0b a0 bb bc 45 a4 93 bc
       0.17227851 -0.04359093 -0.022903463 -0.018022666
000170 3f bf 88 3d f8 39 fa 3c bf bd 61 3c 84 ad 04 3e
       0.06677102 0.03054522 0.013778149 0.12956816
000180 79 4d c2 bd 30 95 56 bd 88 0b e5 bc 31 82 ab bd
       -0.09487433 -0.05238837 -0.0279596 -0.083744414
000190 bf eb 63 bd 17 2a 68 bd 09 da 49 3c e5 a8 03 3c
       -0.055644747 -0.056680765 0.01232005 0.008035873
0001a0 df 52 9e bd ce 66 d8 bd a2 84 05 bb 9e a3 80 3d
       -0.0773065 -0.105664834 -0.0020373245 0.062812075
0001b0 1f ff 72 3d a8 ad 88 bc 51 22 bb 3d 77 4a ea bb
       0.059325334 -0.016684368 0.09137405 -0.00714999
0001c0 3c de 86 bd f9 6c b1 bc 83 c1 18 bd fc 0d 89 3d
       -0.065853566 -0.021658408 -0.037293922 0.066921204
0001d0 ac d6 72 3d 17 a0 bc bc 99 6e d6 3c a3 cc 25 ba
       0.05928676 -0.023025556 0.026175784 -0.0006324744
0001e0 04 ac 6a 3d d4 00 66 bd 7d 69 7c bb 80 f1 e4 bc
       0.057292953 -0.056153134 -0.0038515024 -0.027947187
0001f0 a5 98 ba bd dc 85 20 bd 58 b3 86 3d 7c f3 ce 3d
       -0.09111146 -0.03919016 0.06577176 0.10105035
000200 af 07 9d 3d 6f 7c 57 bd 5f be 99 bb de cd 9c 3d
       0.07667481 -0.052608903 -0.0046918835 0.076564535
000210 d4 83 2c bd 77 08 23 bd ca f4 7b 3b 67 43 38 3d
       -0.04211791 -0.039802995 0.0038445466 0.044986155
000220 96 6a 88 bd 8f d7 9e bc 3a ef 4a 3d db cb 00 3d
       -0.06660955 -0.019389896 0.04954455 0.03144441
000230 bf 81 c6 bd 75 d6 2f 3d 8b 83 40 3c 94 ac be bc
       -0.09692716 0.04292913 0.011750112 -0.023275651
000240 a7 d0 21 bd a1 60 8f 3d f3 30 1a 3b 9b 26 37 3d
       -0.039505627 0.070008524 0.0023527711 0.04471455
000250 6e ef 2b 3d 6c ce 06 bd 12 92 5d bd a8 e2 bc 3c
       0.041976385 -0.032911703 -0.05409438 0.023057297
000260 f9 ff 13 bb 20 da b5 3b 39 b8 b9 bc 15 bd fe bc
       -0.0022582992 0.005549684 -0.022670852 -0.03109602
000270 1c 9c 31 3c e0 65 b8 3c 6c 6e 86 bd c7 53 71 bd
       0.010840442 0.022509515 -0.0656403 -0.058917787
000280 13 ec f7 bc 89 c1 33 3d 47 a1 96 3c c1 bd 9b 3d
       -0.030263936 0.04388574 0.01838745 0.07604552
000290 95 8e 9f bd 77 10 ab bb 82 30 ac bc 9d f9 2b 3d
       -0.07790867 -0.0052204686 -0.021019224 0.041986097
0002a0 68 92 58 bd ab ce 7d 3d fb e6 93 bd 74 2f a0 bd
       -0.052874 0.061964672 -0.072217904 -0.07821551
0002b0 1b a6 38 3d 56 44 77 3c ab 33 8d bc 86 dd 54 3d
       0.045080286 0.015091976 -0.017236551 0.051969074
0002c0 11 15 2d 3d 98 5f a8 bd 37 4d 89 bd 76 82 22 bd
       0.04225642 -0.08221358 -0.06704181 -0.0396752
0002d0 f1 cf 8f 3d 30 6c 8c 3d fc 3d 84 3d c4 9d a7 3b
       0.070220836 0.06856573 0.06457135 0.0051152427
0002e0 b8 cc ab bd 48 9b af 3b 5a 65 6e bd e4 ca 0b 3c
       -0.083886564 0.005359087 -0.058202125 0.00853226
0002f0 38 1a 09 bd 36 0f cc bd 54 b9 94 3d 06 d2 f8 bb
       -0.03347227 -0.09963839 0.07261911 -0.007593396
000300 5e f5 ae 3d 7d b1 4e 3d 64 7c dc 3c c3 b5 8b 3d
       0.08542894 0.050462235 0.026914783 0.06821778
000310 1c 07 54 bd 48 5b f2 3c 4a e1 6d bd ff 02 8d bc
       -0.051764593 0.029584542 -0.05807618 -0.017213343
000320 a3 f3 71 3d be b2 af bd 9d 7c 32 bd 66 22 84 bd
       0.05907024 -0.08579014 -0.04357587 -0.064518735
000330 ff c0 ec 3c 29 f6 d5 bc ef 32 80 3d 31 b9 1e bc
       0.028900621 -0.026118355 0.06259715 -0.009687708
000340 be 7a 78 3d 27 32 db bc e5 ce f9 bb bd f7 3e 3d
       0.06066393 -0.026757313 -0.0076235407 0.04662298
000350 dd 0a c7 3d 98 61 28 bd ac e4 a1 bb fc 23 ba 3d
       0.09718869 -0.041108698 -0.00494059 0.09088895
000360 79 d2 80 3d 1a 2c 74 3d ee 9a 76 3d 1f 02 1a bd
       0.062901445 0.05961237 0.060206346 -0.03759968
000370 39 30 8d 3d 02 f3 b7 3d 81 b5 27 bd 37 d3 63 3d
       0.06893963 0.08981897 -0.04094458 0.055621352
000380 9e dc 1a 3c 8f 70 22 bd af 81 91 bd 94 0d 6f 3d
       0.009452013 -0.039658125 -0.07104813 0.05836256
000390 3f 8b 3c 3d 5c 41 6c b9 dd f1 09 bb 5b ad 2b 3c
       0.046031233 -0.00022531062 -0.0021048703 0.010478343
0003a0 6e 41 2f 3d e5 f0 1c bd 37 11 1d bd 86 08 45 bd
       0.042787008 -0.038315672 -0.038346495 -0.04810383
0003b0 3e 9b 9a 3d ee ee b1 3c e4 4d 7a bc b5 2b 85 bd
       0.07549141 0.021720376 -0.01527736 -0.06502477
0003c0 85 85 5b 3c 36 60 f5 3c e7 b3 7f 3d 66 ef 69 38
       0.013398533 0.029953104 0.062427428 5.5774486e-05
0003d0 24 66 8c bc 5d 3b bd 3d d8 ed 4d bd da 0c a4 bd
       -0.017138548 0.09239838 -0.050275654 -0.08010264
0003e0 94 3f 82 bd 02 ce 82 3d 23 76 70 3d bd 12 37 bd
       -0.06359783 0.06386949 0.058706414 -0.044695605
0003f0 dc 84 82 3d d3 b1 d2 bd db 43 ed bc 0c 2e c5 bc
       0.06372997 -0.102878235 -0.02896302 -0.024069808

action_net.2.bias f4 [128]
000000 b7 8a bf 3c 6f 2f 06 be 75 2b 87 bd e2 20 bd 3e
       0.023381574 -0.13104032 -0.06600086 0.3693915
000010 6c 1b 90 be 7f d3 ce bd 2c 0e 99 bc dc f3 b5 3d
       -0.2814592 -0.100989334 -0.018683515 0.08884403
000020 fd 34 64 3e fd 96 4e 3d 21 63 71 3e a6 71 15 3d
       0.22285838 0.050436962 0.23572971 0.036485337
000030 b3 af ea 3c ce 52 49 3b 5e 61 a3 3e 90 ad d3 3c
       0.028648233 0.0030719521 0.31910223 0.025839597
000040 a5 67 70 3d a7 bf ff 3c a7 2d be bd 07 19 0d bc
       0.058692593 0.031219317 -0.09286051 -0.008611924
000050 e7 4e 3d bd cd 65 18 3e 04 25 ca 3b ce d5 81 3d
       -0.046217825 0.14882584 0.0061689634 0.06339608
000060 e8 64 04 3e 20 c0 17 bd 3b a8 02 be 51 8a 39 bb
       0.12929118 -0.03704846 -0.12759487 -0.0028311203
000070 51 ca e4 3d 19 b5 c8 3d 6f a8 d1 3e 1d ea 90 3d
       0.11171401 0.09800167 0.40948817 0.070759036
000080 88 89 33 3d 46 e6 b2 bd 6d 89 9c 3a 22 2c c1 3d
       0.043832332 -0.087353274 0.0011942812 0.09432246
000090 fd 8e e8 bd cb 21 76 3d dc 07 66 3d 2a fb 23 bd
       -0.11355398 0.06009082 0.05615984 -0.04003445
0000a0 70 45 8f 3c 95 62 97 96 61 e7 f3 3d cc 9a 1f bd
       0.017489165 -2.445758e-25 0.119093664 -0.038965985
0000b0 3d a5 70 3e 56 8d 0b b8 fb 1f 14 3e 4d 14 16 3e
       0.23500533 -3.3271812e-05 0.14465325 0.14656182
0000c0 b5 9d 26 b8 0b 4e 3e 3e 88 c2 c7 bc b9 c5 cd bd
       -3.972436e-05 0.18584459 -0.024384752 -0.10047478
0000d0 47 aa bb 3c db cd 3d 3e 40 93 93 3e e2 67 0f be
       0.022908343 0.18535559 0.2882328 -0.14004472
0000e0 f5 a0 84 bd 47 d3 f8 3c 57 73 63 3c 48 a9 1d 3d
       -0.064760126 0.030374182 0.01388248 0.038491517
0000f0 ad ba 38 bd a8 92 f9 bd e6 a0 80 3d 47 e2 a0 3d
       -0.045099903 -0.121861756 0.06280689 0.07855659
000100 d9 b9 8b 3c 03 17 c6 3d 6d b0 ea 3d 1d 70 85 bc
       0.017056393 0.09672358 0.11459432 -0.016288811
000110 e5 5a 0e 3e 48 a4 46 3e 41 ee 3a 3e 2c ac 0a 3e
       0.13901861 0.19398606 0.18254949 0.13542241
000120 28 31 11 bd cc 7d 07 be 2f 4d fb bd 9d 90 06 3d
       -0.03544727 -0.13231581 -0.12270581 0.032852758
000130 cc f9 45 bd 51 24 2b 3e b0 39 82 3d c9 5a 74 bd
       -0.048333928 0.16713072 0.06358659 -0.059656892
000140 68 6e de 3c 59 1f 5f 3d 80 e2 7e 3e 96 1c 2b 3d
       0.027152255 0.054473255 0.2489109 0.04177531
000150 72 c4 02 3e 40 9c 31 be 1f b0 1a bd 85 b2 a7 3d
       0.1277025 -0.17344761 -0.03776562 0.08188347
000160 d9 e8 91 3d 30 6a 62 3d 6d fd 12 3e a6 7b 63 3d
       0.0712449 0.05527705 0.14354487 0.055537842
000170 0d 06 cc bc 95 86 75 3d f5 82 3f bd 22 99 70 bc
       -0.024905229 0.0599428 -0.04675575 -0.014684947
000180 79 fa 91 b9 f4 ce e2 3a 96 86 2a bd 06 f6 f3 b6
       -0.00027843172 0.0017304108 -0.041632257 -7.2706052e-06
000190 1b 68 24 3e 29 e2 35 3e 98 58 24 3e f3 20 31 3e
       0.16055338 0.17762055 0.16049421 0.17297725
0001a0 15 9b 05 3e f8 c3 7e 3d 5a ae 1f 3e b1 f5 12 be
       0.1304744 0.06219861 0.15593854 -0.14351536
0001b0 8a 97 4f bd 9a f7 05 3c ab 5d b2 3b 09 75 8f 3e
       -0.05068163 0.008176709 0.005443295 0.28018978
0001c0 8a a1 1e 3e d0 82 2c 3b 50 97 5f 3d b3 c4 68 3d
       0.1549131 0.0026323088 0.054587662 0.056828212
0001d0 2c c0 98 3d af a8 c4 3d 80 b1 ce 3c 8d f4 df 3c
       0.07458529 0.09602486 0.025231123 0.02733829
0001e0 ef 14 33 3e 54 41 a4 3d 67 f9 b6 3d 77 f4 b6 bc
       0.17488454 0.08020273 0.089342885 -0.022333367
0001f0 fe d7 51 bc 93 81 af 3d 4d d1 09 3d f8 de 00 be
       -0.012807844 0.08569636 0.03364687 -0.12585056

action_net.4.weight f4 [128, 128]
000000 6e 53 30 3d 0a 37 4e 3b b5 9e d8 3c 00 55 43 3c
       0.043048315 0.0031465911 0.026442865 0.011922121
000010 93 ad c3 3c 51 0b 20 bd 98 8c 28 3d 13 62 38 bd
       0.023886478 -0.039073292 0.041149706 -0.045015406
000020 f2 28 48 3d 4f 65 5c 3d fb 66 0a 3d 08 26 fc 3b
       0.048867173 0.053807553 0.033789616 0.0076949634
000030 94 35 28 bd ea 1f d6 bc d3 98 57 bd 65 4e 31 3d
       -0.04106672 -0.026138265 -0.05263598 0.043287653
000040 e9 e0 96 bc 3e 03 9f 3d d1 cd c2 3b af b8 42 3c
       -0.018417792 0.0776429 0.0059449454 0.011884852
000050 04 92 c3 3c 6c 41 b9 bb 6c b1 17 ba 51 0a d5 3c
       0.023873337 -0.005653551 -0.0005786631 0.026005896
000060 ad a1 c9 bb b6 79 69 3d 66 f2 f3 bb 85 a4 28 b9
       -0.0061533065 0.05700084 -0.0074446676 -0.00016083017
000070 90 e6 96 3d 19 99 7c 3d 7c be a5 bd 6b 11 12 bd
       0.07368195 0.061669443 -0.08092973 -0.035661142
000080 ee 02 23 3d 08 df 09 bd 3f 47 95 3d 6e 4e af 3d
       0.039797716 -0.033659965 0.0728898 0.08559881
000090 9d b3 4e 3d 39 4f 07 3d 89 82 ad bd 86 0c 0b 3d
       0.05046426 0.033034537 -0.08472163 0.03394749
0000a0 5f 4d 9c 3d 28 35 bf 96 47 9a 35 3d 0e 1c 1f bd
       0.07631945 -3.089126e-25 0.044336583 -0.038845114
0000b0 88 d1 61 3c 73 dc 64 3c 4e c2 2d bb 8b c3 af 3d
       0.013782866 0.013968575 -0.002651352 0.08582219
0000c0 39 9c 8c bd dd fc 85 3d c8 f7 96 3d 5b 23 db 3c
       -0.068657346 0.065423705 0.07371479 0.026750257
0000d0 9e f6 72 bb 4e f7 34 bc 50 c0 6a 3d 17 91 66 bd
       -0.0037073265 -0.01104529 0.05731231 -0.056290712
0000e0 1c 06 a5 3d 45 b2 42 3d d0 6b 1a 3d e6 1a 94 bc
       0.08057806 0.047533292 0.037700474 -0.018079232
0000f0 5d 9c 07 bd 9d 5b e4 3c ac 5a a8 3d 63 b7 c7 3b
       -0.033108104 0.027875716 0.08220419 0.0060948594
000100 96 04 ef 3c 0b 98 6c 3d 9d f6 13 bd 34 e1 d3 bd
       0.029176991 0.057762187 -0.03612386 -0.103456885
000110 41 ad 5e 3d 5d 8a 5c bd 15 60 a6 bd a5 4e 85 bc
       0.054364447 -0.05384289 -0.08123795 -0.016272852
000120 0d cf ad bd 97 58 82 bd fa 9d 0c be e3 a1 48 3d
       -0.084867574 -0.063645534 -0.13732138 0.048982512
000130 6d c2 92 3d 10 68 6f bd ab 71 02 ba 67 aa 84 3c
       0.0716599 -0.05844885 -0.00049760443 0.016194535
000140 47 87 48 3d c1 b7 1f bc 8c 11 cd bc d7 b0 8b bd
       0.048957136 -0.0097484 -0.025032781 -0.06820839
000150 17 e7 7e 3d 78 9c db 3c 22 57 ae 3d ac 11 a9 3b
       0.062232103 0.026808009 0.08512713 0.0051595774
000160 e6 73 73 3c 8a ec 1f bc f2 58 02 3c 8c 7f 2f bd
       0.014859175 -0.009760985 0.0079557765 -0.042846248
000170 21 2a 99 bd d5 d6 9c 3d ee f7 a4 bc 2d 29 bc 3d
       -0.074787386 0.076581635 -0.020137753 0.09187541
000180 be 10 b2 3b 23 94 88 3c 40 b3 75 bc a5 cf 97 b6
       0.0054341247 0.0166722 -0.01499635 -4.5243237e-06
000190 91 84 4b bc e5 eb a8 3d b2 38 8c 3b ae 45 84 3d
       -0.012421743 0.08248118 0.0042792195 0.06458603
0001a0 75 18 e6 3b b0 90 ac bc 02 c7 a2 bd 0c 84 28 bc
       0.0070219585 -0.021065086 -0.07948114 -0.010285389
0001b0 c0 8f ce 3c 07 ff 98 3d 38 3c 07 bd ea d5 8d 3d
       0.02521503 0.074705176 -0.033016413 0.069255665
0001c0 55 d4 ba 3d 20 38 28 3d 41 a8 c0 3d 84 58 bf bd
       0.0912253 0.04106915 0.09407092 -0.09343055
0001d0 71 c7 83 bd 51 f2 dc 3c b5 b6 b4 bd f4 00 d2 3c
       -0.06434525 0.026971014 -0.08823911 0.02563522
0001e0 2f 26 e1 3c 41 f0 29 3d b6 4a 56 bd b7 b1 13 bb
       0.027484028 0.04148889 -0.052317344 -0.0022536346
0001f0 73 88 cc 3d 32 0d b9 3d ab c2 9e 3d 18 66 41 3d
       0.09986963 0.0903572 0.07751974 0.047216505
000200 ca 9d 5c bd dc ca 76 bd a8 6c ab 3d f3 bc 9a 3c
       -0.053861417 -0.060252056 0.08370334 0.018888926
000210 2c 57 cc 3d f3 75 56 bd 95 c8 c9 3d 0d aa fb bc
       0.09977564 -0.05235858 0.09852711 -0.030720735
000220 ae 98 40 bd 24 3d 02 3d 43 78 87 b8 30 3d 33 3d
       -0.047020607 0.03179659 -6.459702e-05 0.043759525
000230 f0 b6 97 3c ac c6 93 bd e9 27 a8 3c 98 ee 7a bd
       0.018519849 -0.07215628 0.020526843 -0.061262697
000240 7a 09 01 3d 01 f9 5f 3d 4a ac 6e 3d 71 0b 03 3d
       0.03150318 0.054680828 0.058269776 0.031993333
000250 5c 73 71 bc c1 5d 93 bd 4f b6 59 3d 9e 3a 94 3d
       -0.0147369765 -0.071956165 0.05315238 0.07237743
000260 d4 0c 8b 3d be 9f be bb a9 bc 80 3b 86 27 5e 31
       0.06789556 -0.0058173826 0.00392874 3.2327718e-09
000270 a5 48 10 bd 02 c9 b8 3d d5 69 2c 3d 6a 72 10 bd
       -0.03522553 0.09022714 0.042093117 -0.035265364
000280 a0 53 2b bb 8f 78 9c bd 35 3c 97 3c 65 90 b5 bd
       -0.0026142374 -0.07640182 0.018461326 -0.08865432
000290 96 90 80 bb b8 da ab bc 75 dd 0c bd 51 c9 05 bc
       -0.003923486 -0.020978317 -0.034390885 -0.008165673
0002a0 a0 4e 43 bd 62 7d 99 b4 e4 40 6f 3d 8b cf 59 3d
       -0.047682405 -2.85897e-07 0.058411494 0.053176444
0002b0 07 41 ad bd 09 78 66 35 30 84 4b bd 59 63 f8 bc
       -0.084596686 8.585635e-07 -0.04968661 -0.03032081
0002c0 84 14 be 3c da ee eb bd a0 8c 5d 3c 1a d6 71 3c
       0.023203142 -0.11520167 0.013522297 0.014760518
0002d0 45 e9 7c bd 3e 4f aa bd 3a e7 ee ba c9 13 0a 3c
       -0.0617459 -0.083158955 -0.001822687 0.008427569
0002e0 6a 4d cc bc e5 6d 73 3c e2 13 99 bc 4a c8 c0 3d
       -0.024939258 0.014857744 -0.018686239 0.09413202
0002f0 66 f7 c9 3b b3 30 3d 3b 52 e1 52 3d bf 80 3a bd
       0.0061635254 0.0028868138 0.051484413 -0.045532938
000300 d4 82 ea 3c 27 8d 98 3c 61 c0 c5 3c c0 d7 34 bc
       0.028626837 0.018621994 0.024139585 -0.011037767
000310 9a 47 d4 3d b9 8c 88 3d 91 2b c3 bc 55 d7 bf 3d
       0.103652194 0.06667466 -0.023824485 0.09367243
000320 da fb a4 bd 56 df a8 bd 81 d1 58 3d be 55 81 3a
       -0.080558494 -0.08245723 0.052934173 0.0009867472
000330 d0 11 f4 3b cc cc 25 bd 71 ea 96 3c 78 fc 55 bc
       0.0074484125 -0.040478513 0.018422337 -0.0130606815
000340 4d 2a 70 3c 86 82 65 3d cd cb 8a 3d 0e 26 8b 3d
       0.014658523 0.05603268 0.06777153 0.06794368
000350 1b df f7 bc da 52 a9 3c 75 9a 2f bd f4 a2 6e 3d
       -0.030257752 0.02066939 -0.04287191 0.058260873
000360 ea 92 c4 3d 80 9a a8 bd 3b 99 dc bd 44 95 6d 3d
       0.09598334 -0.082325935 -0.10771414 0.05800368
000370 b6 f9 89 3d b8 89 e2 3b 42 c9 bb bd c5 e9 83 3d
       0.06737082 0.00691339 -0.09169246 0.064410724
000380 6d ed 3f 35 fb 39 0c 3d f2 10 15 bc 72 33 5a b6
       7.1498545e-07 0.034234982 -0.009098278 -3.2514477e-06
000390 ba 5a d6 bc f4 51 e0 bd 8d 2d 3c bb dd d1 24 bd
       -0.026166309 -0.10953131 -0.0028713674 -0.040239204
0003a0 61 55 6f bd 59 21 6b 3d 90 d7 bc bc 77 62 5b 3d
       -0.058431033 0.05740485 -0.023052007 0.0535607
0003b0 c1 eb 41 bd 18 01 1f 3d cf 5d ac 3d d8 c2 36 3d
       -0.047343973 0.038819402 0.0841633 0.04461941
0003c0 c3 15 da bc 81 56 ee 3b aa 38 18 bc fd 79 46 3d
       -0.026621705 0.0072734957 -0.0092908535 0.04845618
0003d0 ca fc a0 3d 61 16 65 3d 1f 8d d0 bc 3c fa aa 3d
       0.07860716 0.055929545 -0.025457917 0.0834851
0003e0 58 2e 8a 3d 27 74 6d bd 51 d3 96 bd be f4 77 bd
       0.067471206 -0.0579721 -0.07364524 -0.06053614
0003f0 90 21 1a 3c ff be 30 bc 2b 70 05 3d b7 e2 3a bd
       0.009407416 -0.0107877245 0.032577675 -0.04562637

action_net.4.bias f4 [128]
000000 4e e0 96 3d 63 b3 44 bd 7c 47 e3 3d 08 46 1e 94
       0.073670015 -0.04802264 0.11097619 -7.990773e-27
000010 bf ca 34 bd cb a3 c5 bd 20 cb c2 22 6d a1 4a 3d
       -0.044138666 -0.09650382 5.2798872e-18 0.049470354
000020 90 b5 0d 3e 1a aa fb 3b da f8 b1 bd 16 fa 35 3b
       0.13838792 0.00768019 -0.08690043 0.002776747
000030 67 42 7f bb e4 75 33 3e 83 0d df bc be 6c 1c 3e
       -0.003894949 0.1752544 -0.027228123 0.15275857
000040 bc 7e 6e 3d bc 14 cd bd e1 83 04 3e 26 8e f2 bd
       0.058226332 -0.100137204 0.12940933 -0.11843519
000050 13 86 1d 3e 49 9f c5 bd a7 76 2f 3d 3f bc 5b bd
       0.15383177 -0.09649522 0.042837765 -0.053646322
000060 bf c5 a2 3c fe e6 3b bd b1 7f ae bb d6 e5 6c 3c
       0.019869683 -0.04587459 -0.0053252806 0.014459094
000070 63 af 9e 3d fc c4 08 bd fb 5f 72 3d 5b ca dd bd
       0.07748296 -0.033390984 0.059173565 -0.10829612
000080 2d 6e db 3d 53 ef 8d 3d 7b 95 15 bc a7 e3 f9 bd
       0.10714374 0.06930413 -0.009129877 -0.12201624
000090 ba b8 b3 bd 89 26 6a 3d c8 48 25 bc eb cd 79 bd
       -0.08775468 0.057165656 -0.010088153 -0.060987394
0000a0 ad 35 d2 3d 24 63 e0 3d 13 a4 59 b8 aa 17 ce 3c
       0.10264144 0.109564096 -5.1889638e-05 0.025157768
0000b0 7f ef 3f 3c fb 68 82 ba fc 49 8b bc ac a7 89 bd
       0.011714815 -0.00099495 -0.017003052 -0.06721434
0000c0 85 c7 11 3e 75 8f 92 3d 46 c4 86 3d 74 9b cb 3a
       0.14236267 0.071562685 0.06580405 0.0015534
0000d0 76 8c 8c 3d 13 ee 9e bc d4 ee 1d bc cf 4f 65 3d
       0.06862728 -0.019400632 -0.009639461 0.055984315
0000e0 91 ec 6e bd 26 ad c0 bd e6 5d 74 3c 64 23 d0 3d
       -0.058331076 -0.094080254 0.014914965 0.10163
0000f0 1c fc 96 3d f2 8f 22 3e 3f dc d5 bd 3c 72 3d 3d
       0.07372305 0.15875223 -0.10442399 0.04625152
000100 a9 e8 93 3d 79 bc 04 3d 17 7d 23 3d 8f 71 45 3d
       0.07222111 0.032406304 0.039914217 0.048204
000110 4f 8d 42 3d dd 0e e2 bb a2 f6 18 3b 9a c6 e9 3d
       0.047498044 -0.0068987445 0.0023340364 0.11414833
000120 79 65 39 3d 62 b3 3d 3d 5c 47 5d 3e ee ed 8d bd
       0.045262787 0.04631365 0.21609253 -0.06930147
000130 ee a4 3c 3d de d1 12 bc bb f5 25 3e af b1 84 3d
       0.046055727 -0.008961169 0.1620702 0.06479203
000140 1a 79 71 3c a0 85 24 3e 78 64 1b 3e df 2c 94 3c
       0.0147383455 0.16066599 0.15175045 0.018087802
000150 9e 59 8e bc 98 b3 ba bd 0a 2b bb bc 2e a0 94 3d
       -0.017376717 -0.09116286 -0.022847671 0.07257114
000160 18 0d f6 3b 05 eb 0b 3d cb 66 51 3d 25 4e 0c 3d
       0.007508885 0.03415968 0.05112342 0.034254212
000170 ea 5c 30 bd 1e 1a b1 bd cf 77 83 3c 26 fd dd 3c
       -0.04305736 -0.086475596 0.01604834 0.02709825
000180 1b b7 71 bd b3 43 c2 bd cf db d3 3d 47 bc be 3d
       -0.059012514 -0.09485569 0.103446595 0.09313255
000190 f2 a7 17 3d 53 a3 3f 3d ed 25 35 bd 8c 9c 52 3d
       0.0370254 0.046786617 -0.044225622 0.051418826
0001a0 94 e9 a2 bb 4a e7 2e bc 6c 85 7f bb f7 f5 15 3e
       -0.0049716923 -0.010675261 -0.0038989438 0.1464461
0001b0 33 02 09 3d ba e6 50 3c 14 2d bc bc ee da 75 3e
       0.033449363 0.012750322 -0.022970714 0.24009296
0001c0 ad f7 20 3c 75 2a 11 3e ae b1 10 3e 70 2d d3 3c
       0.0098246755 0.14176352 0.1413028 0.025778502
0001d0 2b 9e 0c 3b 1b 24 9e 3d b5 d1 2d 3e fe 76 36 3e
       0.002145658 0.0772173 0.16974528 0.1781883
0001e0 69 26 34 bd 04 84 60 3d 30 db e0 3c 6b df 0c bd
       -0.043981943 0.0548134 0.027448267 -0.034392755
0001f0 c6 a1 96 3b c8 a3 8a 3c 9f 2e 0d be 3d a6 02 3e
       0.0045969216 0.0169238 -0.13787316 0.12758727

action_net.6.weight f4 [2, 128]
000000 ae b4 4c bd 6f f8 ad bc 4d c1 05 3d 05 5f 31 18
       -0.049976997 -0.021236626 0.03265505 2.2924686e-24
000010 9f a4 91 3d 82 67 52 3d 40 08 be 3b 9f 83 8d bd
       0.07111477 0.051368244 0.0057993233 -0.0690987
000020 ab 43 c0 bd a5 2e 2f 3d 0a 72 54 3d b5 00 63 3d
       -0.09387907 0.042769093 0.05186657 0.055420596
000030 d9 cd 43 bb 01 c7 6a bd ea 13 77 ba 36 4d 7a 3d
       -0.0029877333 -0.05731869 -0.00094252697 0.06110879
000040 82 8e 7f bb af 07 6b 3d 56 6a 36 3b dc c3 82 3d
       -0.0038994853 0.057380375 0.0027834377 0.063850135
000050 0e 1a 94 3a 2c 25 8d bc 90 1a 1d 3d 20 05 b9 bc
       0.0011299269 -0.017229639 0.03835541 -0.022585452
000060 eb eb b9 bc 8a 62 7a 3d 4f 16 77 3d 5d 22 81 3d
       -0.022695502 0.06112913 0.06032401 0.063053824
000070 ed 69 2b bc 40 58 70 3d b4 77 55 bd ed 5f 67 bd
       -0.010462266 0.05867791 -0.05211611 -0.056487966
000080 89 33 b2 bd a7 07 c9 bc 1c 03 96 bd c0 36 00 bd
       -0.08701236 -0.024539782 -0.07324812 -0.031302214
000090 3b 2c bb bc 0c 68 d4 bb 6b 30 f0 bc 5b 49 05 3d
       -0.02284824 -0.00648213 -0.029319962 0.03254066
0000a0 8f c9 c1 bd e8 dd af bd 45 cf 03 3b 4d b6 c1 bd
       -0.094622724 -0.08587247 0.0020112556 -0.09458599
0000b0 69 66 6a bd c6 95 87 bb 94 65 da b9 e7 ef 11 bd
       -0.057226572 -0.0041377274 -0.00041655882 -0.03562918
0000c0 98 97 ec 3c 8b 0e 96 3d 86 2e 26 3c e4 04 7e bd
       0.02888088 0.073269926 0.010142928 -0.062016383
0000d0 97 c9 6a 3c 2b 34 81 3d 02 42 81 3d ea d3 a7 3c
       0.014330289 0.063087784 0.06311418 0.02048679
0000e0 91 9b 8e 3d ad 3e 6d 3d cf 22 0a bd e9 a6 8b bd
       0.06963266 0.0579211 -0.033724602 -0.06818945
0000f0 bc 6a 8f bd f5 db 0f 3b e7 b7 49 3c 83 30 26 bd
       -0.0700278 0.0021951173 0.012311912 -0.040573608
000100 a9 c9 05 3d 28 ee 10 3c 8b 71 f5 3c 78 28 18 bd
       0.03266302 0.008845843 0.029961368 -0.03714797
000110 50 75 1e 3d 75 13 1a bc 4c ac 8e 39 c1 69 2c bd
       0.038686097 -0.009404053 0.00027212722 -0.042093042
000120 ec bf eb bc 8b 47 9c 3d 42 34 29 bd a4 b9 9d 3d
       -0.028778039 0.07630833 -0.041309603 0.07701424
000130 d6 dd 85 3c 98 15 a7 bd d8 42 92 bd 9e 1d 6d 3d
       0.016341131 -0.081584156 -0.07141656 0.057889573
000140 c7 1d 1c 3d a1 bc 50 bc 6f 95 7a bd 9d b8 7c 3b
       0.038114335 -0.012740285 -0.061177667 0.0038562187
000150 94 cf c5 3c ac d8 62 3b 3e a9 a2 3d b5 b0 a2 bd
       0.024146833 0.003461401 0.07942437 -0.079438604
000160 d4 fc 40 3c 05 e3 91 bd f0 db 7f bd 71 08 a5 bd
       0.011779029 -0.07123379 -0.062465608 -0.08058251
000170 b2 c2 7c 3d 66 36 ac bc ba 74 26 bd 8e 7a c6 bc
       0.061709113 -0.021022033 -0.040638663 -0.02422836
000180 57 ac 0f 3d 6c b0 74 3d ac 08 d9 bc ae e5 8f 3d
       0.035076465 0.05973856 -0.026493393 0.0702623
000190 8d 32 e2 3b 48 2f 07 bd 74 8a 5d 3b ad a6 1d bc
       0.006902999 -0.033004075 0.0033804448 -0.009622258
0001a0 1e 39 a2 3d be 76 f4 bc 2a 2e 65 bb 4a e1 99 bd
       0.079210505 -0.029841777 -0.0034970143 -0.075136736
0001b0 2a 35 e5 bc 48 c3 13 3d 0b 6a 06 3d a6 05 8d 3e
       -0.027979452 0.036074907 0.032815974 0.27543372
0001c0 f9 88 a7 bb 6b 08 8e bd 28 a5 81 bc 6c 98 89 bd
       -0.005112764 -0.06935199 -0.015825823 -0.06718525
0001d0 da ba 99 3b 72 2c 86 bc 1d b0 f8 bc 65 bc 6d bb
       0.004691464 -0.016378615 -0.030357415 -0.0036275622
0001e0 45 f8 e2 ba 1e 3b bb 3c 9f fa 1b bd 1b da c8 3c
       -0.0017316422 0.022855338 -0.038080808 0.024518063
0001f0 c1 7b 3e 3d d0 4a 54 bd 10 93 db bd 8e be 21 bd
       0.04650474 -0.05182916 -0.10721409 -0.039488368
000200 bd aa 03 3d a3 52 ba 3c 88 a6 89 3d 79 52 a2 98
       0.03214525 0.022744482 0.067212164 -4.1959295e-24
000210 d3 1e 6f 3c a6 22 93 bd 72 30 aa bb d5 c3 82 3d
       0.014594751 -0.07184343 -0.0051937634 0.06385008
000220 22 7f b2 bb 0b 7a 70 bd 16 56 10 bd ad b8 70 bc
       -0.0054472843 -0.05871014 -0.035238348 -0.014692468
000230 a8 ab 25 bd 20 4e d0 ba 66 1f 4e bd cd b2 bc bd
       -0.040446907 -0.0015892424 -0.050322913 -0.09213791
000240 b1 71 d0 3d e4 e0 34 3d f4 28 b2 3d c6 ad 12 bd
       0.10177935 0.044159785 0.086992174 -0.035810255
000250 c3 0d 96 3d ca f4 21 3d 34 e9 88 3d 6c 15 08 bd
       0.073268436 0.03954009 0.06685105 -0.033223554
000260 90 67 81 3d 67 66 91 bd c3 ec 6d 3c 44 6e 56 3d
       0.06318581 -0.0709961 0.01452178 0.05235125
000270 5e a3 46 3d 0c 2b fc bb 3d 7e 0a 3c 29 2a e3 bb
       0.048495643 -0.0076955613 0.008452949 -0.006932516
000280 38 56 6e 3d 69 9d 8d bc b3 9d 81 bd 4e ac 85 bd
       0.058187693 -0.017286973 -0.06328907 -0.06527005
000290 b7 c8 c5 bc af 90 c5 3c 3a 10 b0 bc e3 25 3d bd
       -0.02414356 0.024116842 -0.021492112 -0.04617871
0002a0 c4 db c2 bc b2 a6 8e 39 67 77 08 bc 8d de 05 bd
       -0.023786433 0.00027208548 -0.008329249 -0.032682944
0002b0 f2 c9 64 bd 93 1a 97 3c 40 05 93 bc ad 09 ef bc
       -0.055856653 0.018445289 -0.01794684 -0.029179418
0002c0 15 47 b0 3d 6d 84 83 bd 46 6f 44 3d 69 52 1b bc
       0.08607308 -0.064217426 0.04795768 -0.009480097
0002d0 64 b6 8f 3d 55 27 91 3d b3 9d 62 3d fc d9 cd 3c
       0.0701721 0.0708758 0.055326175 0.025128357
0002e0 70 6b 48 3d 85 9e 83 bd aa 20 31 bd 92 ce 82 3d
       0.048930585 -0.064267196 -0.04324404 0.063870564
0002f0 31 6d 73 bc 66 30 00 3d f6 01 90 bc d5 48 c4 bc
       -0.014857576 0.031296156 -0.01757906 -0.02396051
000300 5a 59 ab 3d 91 41 bc 3c 93 99 70 3d e5 0d 87 bd
       0.08366652 0.022980483 0.05874021 -0.06594447
000310 32 58 b8 3d f6 cd 0c bd 0b c8 e2 b9 b3 e5 04 bc
       0.09001197 -0.034376107 -0.00043255123 -0.008111405
000320 87 0c b4 3c 26 a8 55 bc f8 45 1b 3d af 32 9c 3d
       0.02197863 -0.013040578 0.037908524 0.07626855
000330 f0 25 84 bd d4 63 14 bd e4 93 ff 3b 04 74 a9 3d
       -0.064525485 -0.036228016 0.0077996124 0.08274081
000340 59 ea 1e 3d 67 b6 8f 3d 7c b0 ab 3c c5 25 93 bd
       0.03879771 0.07017212 0.020958178 -0.07184938
000350 c5 b0 3d 3c 9b 4c 9c bb fa a7 46 bd 21 df e7 bc
       0.01157779 -0.0047698743 -0.04850004 -0.028304638
000360 e6 bd 61 3c 69 a6 5b 3d 90 16 9c bb a4 47 7c 3c
       0.0137781855 0.053625498 -0.004763432 0.01539794
000370 76 1a 8a 3d 31 45 d8 bc 40 27 c7 3c 7d d3 9a bd
       0.06743328 -0.02640018 0.024310708 -0.075598694
000380 82 fb 3d 3d 15 25 b7 bc 91 0c 8c 3c 55 8f b6 bb
       0.046382435 -0.02235655 0.017095836 -0.0055712857
000390 43 cb 0a 3a 84 22 1b bc 9a c2 7c bd 13 e4 79 3b
       0.00052945706 -0.009468678 -0.061709024 0.0038130328
0003a0 04 e2 39 bd a7 06 db bc 2e 01 fd 39 9f 66 71 3c
       -0.04538156 -0.02673657 0.000482568 0.014733939
0003b0 99 c2 0e 3c 0d 95 16 3d 84 e5 ff bc f2 3d 8c be
       0.008713388 0.03676324 -0.031237371 -0.2739101
0003c0 3d 5b 34 bc cf 98 b8 3c 89 ae 10 3d 23 c5 80 3d
       -0.011008081 0.022533802 0.0353227 0.06287601
0003d0 f1 7a 16 3d c5 12 bb 3d 1f bf 54 3d 1a 8d 8e 3d
       0.03673834 0.091344394 0.05194008 0.06960507
0003e0 f5 12 39 3b 34 0b aa 3d d5 69 20 bd 89 65 8b 3c
       0.002824006 0.08302918 -0.03916343 0.01701619
0003f0 5b 34 8e 3d 1d a8 7d 3d 6d 89 13 3e e5 05 93 3d
       0.0694358 0.061927903 0.14407893 0.07178859

action_net.6.bias f4 [2]
000000 6a 95 cc bd 03 4d d2 3d
       -0.09989436 0.10268595

gc1.weight f4 [12, 128]
000000 50 ce 7a bd 51 13 4b 3d 48 ba 96 b9 f9 4b 56 3d
       -0.06123191 0.04957897 -0.0002874902 0.052318547
000010 a7 0b 36 3c b1 bf 84 3d 2c 23 fa 3c b3 a3 60 3d
       0.011111177 0.06481875 0.03053435 0.054843616
000020 12 98 18 ba 27 14 5e 3c 42 39 95 bc dc 2c 79 3d
       -0.0005821 0.013554609 -0.01821578 0.060833797
000030 5e 20 8f 3d ed 05 80 3b 41 74 4b bd b8 6d 82 3d
       0.069885954 0.0039069564 -0.049671415 0.063685834
000040 07 3c 33 bd 96 33 b9 3d 63 b6 37 bd 81 2e 2c bc
       -0.04375842 0.09043042 -0.044851672 -0.010509134
000050 b3 89 51 3d 65 78 ac 3d 60 56 a1 3d 0a af 83 3b
       0.05115671 0.08421401 0.07877803 0.004018669
000060 87 18 f3 3c 8b 59 f1 3b 57 ce 23 3d 8b 60 e6 3c
       0.029674781 0.0073654107 0.039991703 0.028122207
000070 8a 31 82 3c a2 fe 94 3d 6d ea 9f bc b7 e4 a6 bd
       0.015892763 0.0727513 -0.019520963 -0.08149093
000080 88 56 a5 3d ac 25 35 bd 0c 37 af bc 22 ae 44 bd
       0.08073145 -0.04422538 -0.021388553 -0.04801763
000090 d6 81 65 3d 7a 2b 74 3d fd 25 51 3d d8 1e 3f 3d
       0.056032024 0.059611775 0.05106162 0.046660274
0000a0 e1 37 a3 bd 9d a3 a2 bd a4 14 d4 3c 06 33 db 3c
       -0.079696424 -0.07941363 0.025888748 0.026757728
0000b0 6b ac e6 3c ea 81 4b bd d3 ad 90 bd 38 7b ad bd
       0.028158387 -0.049684443 -0.07064404 -0.08470768
0000c0 a1 f7 87 bd 39 f7 41 3d e7 40 18 3d aa a0 67 3d
       -0.06639028 0.04735491 0.03717127 0.056549706
0000d0 dc ab 25 bd 48 39 4e bd a2 6d 48 3d 7d 38 ae bd
       -0.0404471 -0.050347596 0.04893268 -0.08506868
0000e0 af 2d 60 3d 7c 4e 7d 3d 3c c8 17 bd 58 a8 28 bc
       0.054731067 0.061842427 -0.037056193 -0.0102940425
0000f0 7d 75 54 bc 38 a3 87 3d 6e 53 70 bd 05 a0 09 3d
       -0.0129674645 0.066229284 -0.058673315 0.033599872
000100 68 01 22 3d c7 a2 ed 3c a7 24 ac 3d ba 40 34 3c
       0.039552122 0.029008282 0.084054284 0.01100176
000110 16 91 78 3d 7a 39 66 3d dd 67 36 bd 6f 88 3c bd
       0.06068524 0.056207158 -0.044532645 -0.04602855
000120 d6 3b 7a bd 81 de e4 bc 25 7b 7e bd 93 24 5a 3d
       -0.06109222 -0.02793813 -0.06212916 0.053257536
000130 5e 23 88 bd 86 af 82 bb d9 ee 33 bd ca 14 89 3d
       -0.06647371 -0.003988209 -0.043928955 0.06693418
000140 98 83 c8 3c 95 e5 c0 bd 9e e5 95 3d d1 a0 06 3d
       0.024476811 -0.09418789 0.07319187 0.03286821
000150 68 02 38 bc 1a ee d4 bb a1 09 3c bd 69 f4 2a 3d
       -0.011231042 -0.0064981105 -0.04590762 0.041736994
000160 e4 3e 2b bd c3 b6 9d 3d 3c 47 6d bd 31 e9 36 3c
       -0.041808024 0.07700875 -0.057929263 0.011163996
000170 3b fc e1 ba f8 1f f1 3c aa 46 a1 3d 03 0b cc 3c
       -0.0017241308 0.02943419 0.07874806 0.024907595
000180 44 b5 a2 3d c8 3d 9d bd fe 09 73 bd 6b 02 3b 3c
       0.0794473 -0.076777995 -0.0593357 0.011414151
000190 f9 9e 2e 3d 85 40 1e 3d c3 a1 dc bc 4a 46 37 bd
       0.042632077 0.03863575 -0.026932603 -0.044744767
0001a0 93 6d 88 3d d8 49 d5 bc 9f df da 3c ec 32 96 3d
       0.066615246 -0.026036188 0.026717959 0.07333931
0001b0 b7 1c e6 3c 8a fa 1c bd 79 b0 ff 3b 9f 5b 93 3d
       0.028089864 -0.03832487 0.0078030196 0.0719521
0001c0 b3 e9 94 3c 39 f6 24 3d e7 bf 76 3d 73 00 14 bd
       0.018177843 0.04027388 0.060241606 -0.03613324
0001d0 b0 ec 56 3c 5d 96 84 3d 47 90 74 bd 8b cf 7b 3d
       0.013117954 0.06473992 -0.059707906 0.061477225
0001e0 cb 69 9c bd 8d 7d 7b bd 68 c6 5d 3c 9e 04 ee 3b
       -0.07637366 -0.06139903 0.013536073 0.007263734
0001f0 16 ad 1d bd 23 c7 d2 3c b6 36 6e 3d d3 ee 4f 3c
       -0.038495146 0.025729721 0.058157645 0.0126912175
000200 27 06 a2 3d 0b e3 3d bd ae 1b 91 bc a6 72 cd bd
       0.0791133 -0.046359103 -0.017713394 -0.10031633
000210 f0 c9 73 3d 64 e8 e9 3c 90 d9 fc bc 11 dc ad bc
       0.059518754 0.028553195 -0.03086546 -0.0212231
000220 65 54 9b bd e1 04 f1 bc f3 e3 a9 3c 39 bf 75 bd
       -0.07584456 -0.029421272 0.020738577 -0.059996817
000230 a7 20 48 bd d6 10 58 bd 00 57 95 bd b5 e9 ea bc
       -0.048859265 -0.05275043 -0.072919846 -0.028675893
000240 d2 1a 2f bd b1 3f 7a 3d a1 57 c0 3d 75 f8 da bc
       -0.042750187 0.061095897 0.09391714 -0.026729802
000250 05 84 13 3d b1 c6 38 3d b9 44 9d bd dc b5 54 bd
       0.036014576 0.045111362 -0.076791234 -0.051931247
000260 07 f7 82 bb aa 5d b2 3c ba 48 1c bd d0 7f 05 bc
       -0.003996733 0.021773178 -0.038155295 -0.008148149
000270 71 46 93 bc 6d bb 8e bd d8 89 9c 3c 0a e5 9b 3d
       -0.017977925 -0.069693424 0.019108698 0.07612045
000280 e0 ed a1 3d f6 90 4f 3d 67 f4 09 3d 2a fb 16 3b
       0.07906699 0.050675355 0.033680346 0.002303789
000290 cd f1 87 3c 3d 9b 3c bd 9c bf b8 bd 6b 74 40 3c
       0.016594792 -0.046046484 -0.090209216 0.011746506
0002a0 c6 2f a6 3d a3 b9 5b 3d f1 d5 09 bd d1 80 9d bd
       0.08114581 0.053643834 -0.033651296 -0.076905854
0002b0 bb 5d 6d bc 74 f0 21 bc a7 d2 75 bc 75 52 1b 3d
       -0.014487679 -0.009883989 -0.015003837 0.037920434
0002c0 5d 7c 03 3d a8 f8 43 3d 39 31 86 bb ca 2e 83 bd
       0.032101024 0.04784456 -0.0040952233 -0.06405409
0002d0 b5 5e 68 3a b1 49 d0 bd 06 6e 75 bc de af 45 bc
       0.000886421 -0.101703055 -0.014979845 -0.012065856
0002e0 60 cd ba 3b d5 0a 7f 3c 1b 21 b7 bc 36 b1 bc bd
       0.005700752 0.015566547 -0.022354653 -0.09213488
0002f0 b2 3b 90 3c 99 99 7e 3d 0f a6 4a bd 0a 26 9c 3c
       0.01760659 0.0621582 -0.049474772 0.019061107
000300 4a a4 ac bc 16 4c e1 bb a5 16 13 bc 00 a1 c3 3c
       -0.021074433 -0.006875525 -0.008977567 0.023880482
000310 68 e7 8f bd 03 06 3d 3d 82 92 61 3d ba d8 66 bd
       -0.07026559 0.04614831 0.05507136 -0.05635903
000320 3c a1 ce 3a 1a 68 aa ba 58 a0 80 bd 4d e1 29 bc
       0.0015764604 -0.0013000995 -0.06280583 -0.010368657
000330 73 75 53 3d 91 7b 04 3d 0d dd 10 bd bf 4a b2 bd
       0.05162568 0.032344405 -0.03536706 -0.08705663
000340 a0 1d 48 3d 36 9c 1f 3c 4b b5 10 3d 9f 72 bc bb
       0.048856378 0.009741833 0.035329144 -0.0057509686
000350 7e 10 86 bd 79 fa 1a 3d 9f cc 90 bd 19 b0 c9 bc
       -0.065461144 0.037836526 -0.070702784 -0.024620103
000360 d5 15 b1 3d 71 21 09 3d 6b aa 57 bd ca ba 20 3d
       0.08646742 0.033479158 -0.052652758 0.039240636
000370 9f 45 42 bd 83 86 38 bd 77 48 b2 bd 50 44 10 bd
       -0.047429677 -0.045050155 -0.08705228 -0.035221398
000380 de ad 92 3d b8 9d 77 3c 6d a3 b8 3a ed 29 2b 3d
       0.07162069 0.015113287 0.0014086791 0.04178803
000390 b8 57 a9 bd 63 92 88 bd d0 29 16 bd 01 9a 27 3d
       -0.08268684 -0.06668546 -0.03666097 0.040918354
0003a0 3b ab 5d bd 2d 37 4c bc bc 54 4a 3d a9 37 76 bd
       -0.054118376 -0.012464327 0.049397215 -0.060111675
0003b0 fc c0 41 3d 15 2a a5 3d 95 62 a9 bc b9 01 7c bd
       0.047303185 0.08064667 -0.02067689 -0.06152508
0003c0 d1 97 b4 3b db d4 97 bd eb f9 77 bd a6 5d ae 3b
       0.005511262 -0.07413646 -0.060541075 0.0053212224
0003d0 0f 0b 86 3d d0 f7 8d 3c 50 6b 9f bd f4 6a 6b bd
       0.06545078 0.01733008 -0.0778414 -0.057475045
0003e0 18 00 91 bd 14 7b 9a bc 34 c5 cf bd 30 d6 44 3b
       -0.07080096 -0.018857516 -0.101450354 0.0030034892
0003f0 52 13 71 3d 8a 15 94 3b fe d2 d4 bb 0a 02 da 3c
       0.058856316 0.004519169 -0.006494879 0.0266123

gc1.bias f4 [128]
000000 7a 02 86 bd de 27 8b bd 9e 70 c8 bd 62 33 49 3d
       -0.06543441 -0.067947134 -0.09787105 0.049121268
000010 39 af 5c bc 25 b2 2e bd 8b a2 21 bd fd 7c 83 3d
       -0.013469511 -0.04265036 -0.039461654 0.06420324
000020 80 45 e4 bd 9e d6 12 bd 0a fa 26 bc fe c1 9d bd
       -0.111460686 -0.035849206 -0.01019145 -0.07703017
000030 9d 59 0e bd cb 1b 83 3d 0e 2f 7a 3d df 7e 8d bc
       -0.03475343 0.064017855 0.06108003 -0.01727241
000040 e3 99 a3 bc d7 12 aa 3d f2 db b9 3b bb 83 56 3d
       -0.01997084 0.08304375 0.0056719715 0.05237172
000050 8a ac 0c 3c ca fe ab 3b bb 7d 98 bd ef 6e bc bd
       0.008586058 0.005248879 -0.07445856 -0.092008464
000060 93 5d 90 3d 6f de 9a bd 42 bc 64 bd fb 0d 1d 3d
       0.07049098 -0.07561957 -0.0558436 0.03834341
000070 f4 45 62 bd a0 9f 66 3d 5f 5e 3c bd 76 3f af 3c
       -0.055242494 0.056304574 -0.045988437 0.021392565
000080 74 22 b8 bc 27 ee 8e bd 6e 4b 41 3d ed 17 56 3d
       -0.022477366 -0.06979018 0.047191076 0.05226891
000090 a2 fb 04 bc fc 67 ac bd 33 79 fe 3d c8 82 01 3c
       -0.008116635 -0.08418271 0.12425461 0.007904716
0000a0 20 75 2c 3b cf 0f 4b bd ec fb 9b 3d 48 05 23 3d
       0.002631493 -0.049575623 0.0761641 0.03979996
0000b0 ad a6 35 3b 7b 3d 19 bc 73 cf d4 3c 43 39 91 3d
       0.0027717755 -0.009353037 0.025977826 0.07091
0000c0 91 6d 38 3d 0b 3a a6 3d 2c 41 6b bd f9 47 83 bd
       0.045026366 0.081165396 -0.0574352 -0.06410212
0000d0 8f 2b aa bc 6e b5 c0 3d 36 a4 88 bc 1e 0f a5 bd
       -0.020772723 0.09409605 -0.016679864 -0.08059524
0000e0 f3 e4 50 bd 48 4f 10 3d b9 f9 ec bb 8d de 79 3d
       -0.050999593 0.03523186 -0.0072319177 0.061003257
0000f0 1e 72 10 be 5c d5 89 bd 7b 06 88 3b 23 05 88 bd
       -0.14106032 -0.06730148 0.004151163 -0.06641605
000100 25 44 a1 3d 8a 63 50 bd 20 8f b7 3c ee d2 b4 3b
       0.07874326 -0.050876178 0.022407115 0.005518309
000110 e7 50 0f 3d b4 a2 90 3c ea 94 85 bd 97 a2 ab bc
       0.034989264 0.017655708 -0.06522544 -0.020951552
000120 d3 65 c1 bd 96 c7 26 bd 68 f9 bc bd c6 ca 44 bd
       -0.094432496 -0.040717684 -0.09227258 -0.048044942
000130 c5 49 97 3d 6a 31 ff bc 77 6a 64 3d 72 c4 28 3e
       0.07387117 -0.031151492 0.055765595 0.16481188
000140 15 e1 e2 bc d4 ce 02 bd f3 88 1a 3d bb b8 af bd
       -0.027695218 -0.031935528 0.03772826 -0.085801564
000150 be db 4d 3d de e5 57 bd 63 47 93 3d 6c 5d 32 bd
       0.05025839 -0.052709453 0.0719135 -0.043546125
000160 3f 52 04 be be 18 6f 3c cb 41 95 bd e7 15 f6 3d
       -0.12922 0.014593301 -0.0728794 0.12015896
000170 3a c2 3b 3d 8f 30 74 3d 9d 09 eb 3c 15 2b 17 bd
       0.045839526 0.05961662 0.028691107 -0.03690632
000180 44 da 50 3c 62 f5 f1 bb e1 74 7a bd dd 36 bb bc
       0.012747351 -0.0073839882 -0.06114662 -0.02285331
000190 4f c8 0b bd 87 b9 2d bd 59 e8 65 bc 9c 36 b5 3d
       -0.034126576 -0.04241326 -0.014032447 0.088483065
0001a0 7d 41 f6 3c 2b 13 6c bd 25 7b ee bc f1 6d dc 3b
       0.030060524 -0.057635467 -0.029111454 0.006726973
0001b0 93 6f 9a bb 2e 9f 7b bd 95 39 83 bd f8 a7 ac bd
       -0.0047130077 -0.061431102 -0.06407467 -0.08430475
0001c0 36 d7 97 3d f2 86 31 3d bd 6f 4f 3d 30 31 92 bc
       0.07414095 0.043341585 0.05064367 -0.01784572
0001d0 e8 3b 6c 3d cf cd 8f 3d 3d 8f 67 bd d6 48 80 3d
       0.05767432 0.07021677 -0.056533087 0.06263892
0001e0 7e d4 5d bd 90 7f 40 bd bc d3 b6 3d c7 e3 6b 3d
       -0.054157726 -0.046996653 0.08927104 0.057590272
0001f0 0d 04 0c 3c ac 16 09 bd f8 f7 e2 bc 8a 9d 9a bb
       0.008545888 -0.033468887 -0.027706131 -0.004718487
